best_models/NN_model.pt (torch, 209101 bytes, 14 tensors)

fp_projection.fc1.weight f4 [256, 64]
000000 ff ed 4a 3d 5c 07 e3 3d df bd eb 3d 2b 0a 00 3d
       0.049543377 0.11085388 0.115108244 0.031259697
000010 1b ee 2d 3d 55 ff 9d bd be e5 e2 bb 90 a7 fe bc
       0.042463403 -0.07714716 -0.00692436 -0.03108576
000020 10 4b cf 3c 9c 5f 6c 3d cb e1 93 3d 16 64 15 bd
       0.025304347 0.057708368 0.07220801 -0.036472403
000030 62 34 ee 3c 52 f5 e7 3d 14 5d f3 bd 98 78 0a 3d
       0.029077712 0.11326088 -0.118829876 0.033806413
000040 95 76 42 bd 02 8b 12 bd 67 75 e0 3d 6e 2a b3 3b
       -0.04747637 -0.0357771 0.10959893 0.0054677045
000050 e8 79 3f bd 4b 78 f9 bd ab 26 e9 bd 22 99 4e bd
       -0.04674712 -0.12181147 -0.113843285 -0.050439008
000060 ae 9b ad bc 93 60 b6 bd 1a 24 3a bd e9 f1 e3 3d
       -0.021192398 -0.08905139 -0.045444585 0.11130125
000070 dc d2 cc 3d a8 9a f5 3c 3d 0c 72 3d c7 3b f4 3d
       0.10001156 0.029980972 0.059093703 0.11925464
000080 80 fa 14 3d 50 56 07 3c a3 f4 8f bd a6 92 1e 3d
       0.036371708 0.008260325 -0.070290826 0.038714074
000090 b5 b8 a7 bd ed 4e ce 3d e8 db 76 3d d1 da 3e bd
       -0.08189527 0.10073648 0.060268313 -0.0465954
0000a0 d3 7c ac bd 40 db 06 bd 68 e2 a9 3d 2b 41 9c 3d
       -0.08422246 -0.032923937 0.08295137 0.07629617
0000b0 47 87 66 3d c9 43 f0 bc 0f cc 74 bd 73 1e 0a bd
       0.056281354 -0.029329197 -0.059764918 -0.033720445
0000c0 00 4d 0b bb b5 5f f2 bb 8a 53 40 bd ef c5 09 3d
       -0.0021255612 -0.007396663 -0.04695467 0.03363603
0000d0 b9 64 ba bd 36 08 5d bd 6c 9a 39 bd c5 49 7d bd
       -0.091012426 -0.05396291 -0.045313284 -0.06183793
0000e0 19 a5 e0 bc 3b 63 57 3d 16 2d ce 3d b5 14 af bd
       -0.027422475 0.052584868 0.10067193 -0.085488714
0000f0 37 1d d0 bd d7 40 c0 bd a7 aa 30 3c 5f 55 7a 3c
       -0.10161822 -0.09387367 0.010782874 0.015279143
000100 61 3b c1 3d 41 9f 67 bd 65 11 50 bd 5e 27 80 3d
       0.09435154 -0.05654836 -0.05079784 0.06257509
000110 06 8a 5e bc df 10 93 3c ad 84 1e bd 71 8d 9f 3b
       -0.013582712 0.01795238 -0.03870075 0.004869156
000120 08 b4 cc bc 77 f6 a5 3c 99 4d 87 3c e5 c2 58 3d
       -0.02498819 0.020259125 0.016516494 0.05292024
000130 0d 51 9b bd 8d 20 ac 3d 7a 1b a9 bc 55 52 50 3d
       -0.075838186 0.08404646 -0.020642985 0.050859768
000140 22 f4 58 bd 67 14 fc 3c ce f6 83 bd fe 7f d8 3d
       -0.0529672 0.030771447 -0.06443559 0.105712876
000150 47 ac 7b bb 20 23 41 3d 2a 8f c7 bc 51 4b a0 bd
       -0.0038402246 0.04715264 -0.024360258 -0.078268655
000160 24 4c 91 bc 4d af 83 bd 81 6c 50 3d 15 55 fc 3d
       -0.017736502 -0.0642992 0.050884727 0.123209156
000170 41 64 83 bd c1 ed 96 bc 4e 69 a5 bd 57 b2 dd bd
       -0.06415606 -0.018423917 -0.08076726 -0.10825031
000180 18 af 21 bc 75 fd 4e bd 4f ce 4c b9 aa bc d3 3d
       -0.009868406 -0.050534684 -0.00019531812 0.10338719
000190 7d 8c f1 bd 45 dd b5 bd d0 be 40 b7 c3 b0 9b bb
       -0.11794374 -0.088800944 -1.1488519e-05 -0.0047512962
0001a0 d9 92 42 bc f6 f3 e5 bd e4 38 2d 3d fb a6 e8 3c
       -0.0118758315 -0.112281725 0.042290583 0.028399935
0001b0 42 1f 85 bc 6f 55 a8 3d cc fa 09 3d c3 47 e2 bb
       -0.016250256 0.0821942 0.033686444 -0.0069055273
0001c0 69 39 c0 b8 1c 33 83 3d c8 a8 8a bd 43 72 f8 3d
       -9.165967e-05 0.06406233 -0.06770474 0.12131169
0001d0 a5 19 cd 3d d7 c6 df bd 24 6e a6 3d 2f 18 d4 3d
       0.10014657 -0.109265976 0.081264764 0.10356175
0001e0 f1 69 35 3d 6f c3 4e bc e5 e7 6f 3d c2 89 4a 3d
       0.044290487 -0.012619837 0.05857076 0.049447782
0001f0 b6 c7 b9 3d a9 f5 ec 3d 5f 53 bd bd 0c 0b cc bd
       0.09071295 0.115702935 -0.092444174 -0.099630445
000200 ec e2 9b bc a8 4e 18 bd dc 2e 92 bc 81 68 d7 bb
       -0.019029103 -0.037184387 -0.01784461 -0.006573737
000210 44 fb 99 3b ef ea 9c bd de ff 59 bd 2f e2 a8 bd
       0.0046991426 -0.076619975 -0.05322253 -0.08246266
000220 26 29 68 bc 43 8d 6c 3c 8e 55 f9 bd 2a 12 11 bd
       -0.014169967 0.014437976 -0.121745214 -0.035417713
000230 16 d1 4a bd ce 92 4d bd 57 0e 95 bd c3 a5 02 be
       -0.049515806 -0.050188832 -0.07278126 -0.12758546
000240 a1 18 18 bd d7 e2 9c bd 6f 66 a6 bc ee c5 18 3d
       -0.037132863 -0.07660454 -0.020312516 0.037298135
000250 cc b9 8b bd b5 5a fc bd 47 d6 02 bc 59 ba e1 bd
       -0.06822547 -0.123219885 -0.007985658 -0.11021871
000260 21 38 86 3c 40 3e fb bc 6c ad 32 bc c5 87 36 3d
       0.016384186 -0.030669332 -0.010905605 0.044563074
000270 5e 9f a9 bd 57 d4 f3 ba 6c 61 71 3c 17 dd ae bd
       -0.0828235 -0.0018602711 0.0147327 -0.08538263
000280 cc 74 ac 3d 6b a7 de bc b4 c7 66 bd e6 9f b5 bd
       0.08420715 -0.02717944 -0.056342795 -0.08868389
000290 7b c4 ce bd 39 8c cb 3d 42 ad f3 bc 62 b2 a1 bd
       -0.100960694 0.09938855 -0.029745702 -0.07895352
0002a0 3b c0 45 3d 5b 64 05 bd 10 0a 98 bc 24 cb c3 bd
       0.04827903 -0.03256641 -0.018559486 -0.095602304
0002b0 58 32 99 3c 6f 8e c3 3d 80 e6 c8 3d e8 a1 f4 bd
       0.018700764 0.095486514 0.098095894 -0.11944944
0002c0 7d 05 ee 3d 26 61 88 bd 63 71 0d bd 80 78 6d 3c
       0.116221406 -0.066591546 -0.034531962 0.0144940615
0002d0 53 18 46 3d cb 9e a5 bd 93 78 e1 3c 88 0c 9f 3d
       0.04836304 -0.08086928 0.027523315 0.07766062
0002e0 3e 2d bb bd fb f1 89 3b 85 c1 f6 bd 02 9e e5 3c
       -0.09139489 0.0042097545 -0.1204863 0.028029446
0002f0 53 de 40 3d bb f9 4c bd b3 4a 80 bb 5d 10 a6 3d
       0.047087025 -0.05004285 -0.003915155 0.0810859
000300 24 61 38 3d ab 31 7f bd 15 9d 9a bd e0 9c 12 bd
       0.045014516 -0.062303226 -0.07549492 -0.03579414
000310 e6 34 c1 3d 08 c9 95 bd 00 c0 d1 3d 07 3d 02 be
       0.09433918 -0.07313734 0.10241699 -0.12718593
000320 c5 df a2 bb 92 82 3b 3d a8 1b d8 bd 96 b8 1e 3c
       -0.004970523 0.04577882 -0.1055215 0.009687563
000330 76 25 d1 3d 67 c2 93 bd 7b 09 c0 3d 7e 59 00 bd
       0.10212223 -0.07214814 0.09376808 -0.031335346
000340 a3 e7 5b bd ae 60 d2 bd a8 9a ed bd 77 35 5b bd
       -0.053687703 -0.102723464 -0.11601764 -0.053517785
000350 f1 00 4e bd 84 63 8a bd 45 93 bf bd 62 ea b0 bd
       -0.050293867 -0.06757262 -0.09354261 -0.08638455
000360 a0 59 48 3d f8 5c 27 3d 5f a8 e7 bd 20 a2 80 bd
       0.048913598 0.040860146 -0.11311411 -0.06280923
000370 b9 11 02 be 52 d6 54 3d ae e2 87 bd 3e 26 8d bd
       -0.12702073 0.051962204 -0.066350326 -0.0689206
000380 80 dd 6b bc 95 7b a4 bd 1e 8b 14 bc 5e c3 ee bc
       -0.014396071 -0.08031384 -0.009066371 -0.029145893
000390 cb fd 75 3d 73 93 a4 3c 6d 95 a2 bd 9a 23 bc 3c
       0.06005649 0.02008984 -0.07938657 0.022966195
0003a0 c5 db e5 bd 5f 64 bd bc 0c 18 fd bd 01 cf 66 bd
       -0.11223558 -0.02311915 -0.12358102 -0.056349758
0003b0 14 f4 fb bd 33 e3 80 3d 1e 78 8c 3d 14 7f 4d bd
       -0.123024136 0.06293335 0.06858848 -0.05017002
0003c0 ed 8d b7 3c cd 2a cc 3c 14 ae 93 3d b9 01 fb 3d
       0.022406543 0.024922753 0.07210937 0.12256188
0003d0 dd 33 80 bd 51 b5 b7 bb d9 ec e4 bd 7f c6 50 bc
       -0.06259892 -0.0056063314 -0.111779876 -0.012742638
0003e0 37 83 96 3d 12 ce 92 bd 30 f7 7e bd c3 28 48 3d
       0.07349246 -0.07168211 -0.062247455 0.048867
0003f0 72 36 da 3d d4 5f 9c bd a5 a4 2a 3d 1e 27 2d 3d
       0.10654916 -0.07635465 0.041660924 0.042273633

fp_projection.fc1.bias f4 [256]
000000 92 63 15 bc d6 bd f7 bd 74 38 10 3d b7 41 eb bc
       -0.009117978 -0.12096755 0.035210088 -0.028717859
000010 c8 71 c6 3d 76 75 ab ba 6d 1a c1 3d 9b 5e 66 3d
       0.09689671 -0.0013081271 0.094288684 0.056242567
000020 ad ef 3c bd 08 46 ed bc d3 61 ff 3d a7 38 79 bd
       -0.04612701 -0.028964058 0.1246983 -0.060845044
000030 38 12 b7 3d 59 25 6d bd 85 cf f7 3c 37 52 d2 bd
       0.08939022 -0.057896946 0.03025032 -0.102695875
000040 f3 6d 3b 3d 05 14 76 bd 84 f2 6a bd b4 6d 84 3d
       0.045759153 -0.060077686 -0.057360187 0.06466237
000050 51 63 b3 3c ae e3 ea 3d 5b 40 c2 bd da 0f 96 3c
       0.021897944 0.11469208 -0.09484931 0.018318105
000060 f2 50 98 bd 26 09 c1 3c ac 6b cd 3d de af 57 bd
       -0.07437314 0.023563933 0.100303024 -0.052657954
000070 05 20 8f 3d a4 3f 05 bc 21 f2 d2 bd 4c 6f 87 3d
       0.06988529 -0.008132849 -0.10300089 0.06613025
000080 d5 75 22 bd 7e 15 ee bd cb 20 9a 3d c9 d4 39 3d
       -0.039663155 -0.11625193 0.07525786 0.045368943
000090 ec b5 a7 3b fe 3d b3 3d bc 97 6b 3d 45 9a 0c 3d
       0.0051181223 0.087520584 0.057517752 0.03432681
0000a0 9a ad 31 bd b0 e7 85 bd 1e a2 96 bd 4b 8b e2 bd
       -0.04337845 -0.065383315 -0.0735514 -0.11061724
0000b0 b5 41 ab bd dc 7a c3 3d 57 59 d1 3c 40 32 d5 bc
       -0.08362142 0.09544918 0.025555296 -0.026024938
0000c0 c7 06 a8 3d bf c3 aa bd 88 16 29 bd fd a1 8d 3d
       0.08204418 -0.08338117 -0.041281253 0.069156624
0000d0 ad ec a5 3d 63 66 ad 3d 5d ad 46 3d 3c 6b f1 bd
       0.08101783 0.08466794 0.048505176 -0.117880315
0000e0 e3 e5 42 3d 7e a1 ec 3c 9c 22 93 3d f1 38 a2 bb
       0.04758252 0.0288856 0.071843356 -0.0049506356
0000f0 3d 83 80 3d 74 cf be 3d a3 c3 02 bd 23 af 48 bd
       0.06275032 0.09316912 -0.031924855 -0.04899515
000100 6a d1 96 bd 0e 84 fa 3d 9b 49 d9 bd be d3 32 3c
       -0.07364161 0.12232219 -0.10609742 0.010914741
000110 9f d7 5c 3d 45 4f ea bc 4a c9 bf 3d 27 52 64 3d
       0.05391657 -0.028602252 0.09364565 0.05574241
000120 95 89 34 3d 31 ac ae bd 74 90 bb bd ac c5 ed 3d
       0.04407652 -0.08528937 -0.091584116 0.116099685
000130 58 8e d6 3d 2e 30 32 bd ae 97 c2 3d b1 81 7a bc
       0.10476369 -0.04350298 0.09501587 -0.01528971
000140 63 20 d3 3d 62 4d 99 3b 10 5a d3 bd 6c d4 b4 bc
       0.10308912 0.004678414 -0.103199124 -0.022073947
000150 ff 12 22 3d a1 26 cc 3d 96 2d 87 3b 6c 38 38 bd
       0.039568897 0.099683054 0.0041253073 -0.044975683
000160 60 91 b5 3d 9d 0f f0 bc 7c ae b5 3d 4e 07 fc 3c
       0.08865619 -0.02930432 0.08871171 0.030765202
000170 a7 9c 3c bd 13 f4 c2 bd b4 4e 53 3d 60 32 71 bd
       -0.046047833 -0.0951921 0.05158873 -0.058885932
000180 80 f2 22 3d 10 c0 22 3d ff 4d e1 3d 18 2d a9 3d
       0.039782047 0.039733946 0.11001205 0.08260554
000190 db 97 ed 3d f0 e3 38 bd 7d 2b a2 bd a9 5b 91 bc
       0.1160123 -0.045139253 -0.07918451 -0.017743902
0001a0 47 03 50 3d 0a cb fc bd 7e 47 7e bd 51 a3 4b 3c
       0.050784376 -0.12343414 -0.0620799 0.012429074
0001b0 41 d2 ea bd a9 c8 84 bd 5b b1 1d 3d 24 37 6a bc
       -0.11465884 -0.064835854 0.038499217 -0.014295373
0001c0 e8 4e fe 39 a8 14 dc bb e7 23 ba 3c ef d4 11 3d
       0.00048505445 -0.0067163296 0.022722198 0.03560346
0001d0 11 ba ba 3d de 94 29 3d aa 57 3c bd cd 65 e0 3d
       0.091175206 0.041401736 -0.04598204 0.10956917
0001e0 a3 97 3e 3d 14 a1 05 3d be a0 9f 3b ec cd e5 ba
       0.04653133 0.03262432 0.004871457 -0.0017532683
0001f0 25 6d d3 bc 66 ab e9 bd 56 24 b0 bc 5a 74 36 3d
       -0.02580888 -0.11409645 -0.021501701 0.044544555
000200 ce 02 c0 3d 85 23 72 bc 94 92 cf 3c ca 49 c3 bd
       0.09375535 -0.014778976 0.025338449 -0.095355585
000210 0c 85 ba bd 4d 64 26 bd 1a d5 08 3d 79 34 ae bd
       -0.09107408 -0.040622998 0.033406354 -0.08506102
000220 58 3d aa bd 18 77 f9 3d 6b 00 b4 3d 5c 1a a7 bd
       -0.08312482 0.121809185 0.08789142 -0.081593245
000230 91 94 72 3d 7b a5 a6 bd 41 65 dc 3c 3b e9 1c bd
       0.059223715 -0.08137032 0.02690375 -0.038308363
000240 25 91 59 bd df 8f b3 3d c1 0a e4 3c 98 d8 2e bd
       -0.053116936 0.087676756 0.02783716 -0.04268703
000250 28 0e ef bd 6c eb 54 bd f6 0c 06 bd b3 39 02 bc
       -0.11672622 -0.05198233 -0.032727204 -0.007948327
000260 5e bf de 3d 0c 78 5c 3d f7 89 8e 3b 61 ee d4 3d
       0.10876344 0.053825423 0.004349943 0.1039703
000270 34 ad 78 3d ad ec 92 bc 94 27 f1 3d b1 06 9f bd
       0.060712054 -0.017935121 0.11775127 -0.07764948
000280 43 39 f8 3c 4d 36 02 3d 56 d0 4d bc ab 05 c3 bd
       0.030300742 0.031790067 -0.012561878 -0.095225655
000290 4c 2a b2 3d e4 c1 66 3d e2 13 95 3b 8c 9b a6 bd
       0.08699474 0.056337252 0.0045494894 -0.08135137
0002a0 67 b7 92 3d 83 1d 1e 3d 0f 71 b1 3d 18 26 cc 3d
       0.071638875 0.038602363 0.08664142 0.09968203
0002b0 6e 13 bb 3d e2 16 b9 bc d8 34 a9 bd a1 05 d7 bb
       0.09134565 -0.02259392 -0.08262032 -0.0065619503
0002c0 f3 46 b7 bd cd 8e be 3d f8 3e 56 bc 7b e5 4c 3c
       -0.08949079 0.09304581 -0.013076536 0.012505884
0002d0 e3 b3 b5 bd 7b ad 9d 3c 81 6a 94 bd 34 1a aa 3d
       -0.08872201 0.019247761 -0.072468765 0.08305779
0002e0 ca 9c f1 3c 0e e6 46 bd 07 36 4e 3d 5d 2a 41 3d
       0.029493708 -0.04855924 0.050344493 0.04715954
0002f0 18 af 8f bd 49 63 12 3d cb 0a 42 3d 09 fb 52 3c
       -0.07015818 0.035739217 0.047373574 0.012877234
000300 83 ac 87 bd cb 6f b0 bd 0c 4c a8 bb cb 26 ba 3d
       -0.06624701 -0.08615073 -0.0051360186 0.090894304
000310 77 ff 90 bd 7b 40 d7 3d d9 f0 ee 3d 6f 95 83 3d
       -0.07079976 0.105103455 0.11667032 0.064249866
000320 75 4f c5 3c 65 ea 84 3d ee d9 c7 bd 8d b5 c4 3d
       0.02408574 0.0649002 -0.09758364 0.096049406
000330 08 be 46 3d 3d 1d a1 3d 77 bd 91 bd be ab 8f bc
       0.04852107 0.07866905 -0.07116216 -0.017537948
000340 ed ad 87 bd ac 2b 11 bd 65 00 d7 3d 65 ee 50 3d
       -0.066249706 -0.03544204 0.10498122 0.0510086
000350 db 3b 98 bd 1a c9 ea bd d7 5b f0 3d d3 3e 19 bd
       -0.074332915 -0.11464138 0.11736267 -0.03741343
000360 ef bc 2b 3c 17 fd a8 bd 7f aa 50 bc 1a 68 e4 3d
       0.010482057 -0.08251398 -0.012735962 0.11152668
000370 1d b1 49 3d 7d c5 4b 3d de 64 f2 bd 72 c6 6b bd
       0.049241174 0.049748886 -0.11835645 -0.0575623
000380 57 dd c2 3d 5e 5c 81 bd 8e b7 d5 3d 3e 58 a2 bd
       0.095148735 -0.06316446 0.10435401 -0.07926987
000390 f7 66 4b 3d 6f 96 f0 3d cf 9f bc 3b e5 61 12 3d
       0.04965874 0.11747443 0.0057563554 0.03573789
0003a0 f5 66 ad 3c b8 a2 a1 bd 40 a9 e2 bd 88 ef d3 3d
       0.021167258 -0.07892364 -0.11067438 0.10348421
0003b0 40 58 70 bd fe 76 dd bd 31 38 1c 3d 80 ac 7b 3d
       -0.05867791 -0.108137116 0.038139526 0.061443806
0003c0 d1 77 f7 bd 1a f3 12 bc b2 ad f0 3d bc 7c cb bd
       -0.120834 -0.008969093 0.1175188 -0.099359006
0003d0 6c 68 eb bd dd 2f 89 bd a6 fb e2 3d 17 5c 03 3d
       -0.11494526 -0.06698582 0.110831544 0.032070246
0003e0 9e f7 91 3d 9d b8 71 3d 41 bf a1 bd f7 52 51 bd
       0.07127307 0.05901395 -0.07897807 -0.051104512
0003f0 81 af 5f bd 90 33 4f bd 61 90 73 bc 53 2a 87 3d
       -0.054610733 -0.050586283 -0.014865966 0.065998696

fp_projection.fc2.weight f4 [64, 256]
000000 cc 83 27 3d 1e 6b 8a 3c 9d 8b 78 bd e9 d5 84 bc
       0.040897176 0.01689678 -0.06068002 -0.016215282
000010 1a d3 ce 3c 0c ce 72 bd 1a 40 83 bd 39 f5 59 3d
       0.025247145 -0.059278533 -0.06408711 0.05321238
000020 a0 11 62 bd 30 10 22 bd 4f 61 6c bd cf 83 84 3c
       -0.05519259 -0.03956622 -0.05770999 0.016176132
000030 f4 8b f7 3a cc db 07 3d 63 35 1e 3d 38 a4 a8 3c
       0.0018886314 0.0331686 0.038625132 0.020586118
000040 43 2d 67 bd 97 01 5a 3d 18 00 08 3d 3a 9b 09 3d
       -0.05643965 0.053224172 0.033203214 0.0335953
000050 30 77 67 bd 34 31 31 3d 6d 14 e5 bc 82 52 6b 3d
       -0.05651015 0.043259814 -0.027963841 0.057451732
000060 e6 ea 53 3b cb f8 74 bd 19 19 77 3d 64 d9 bc bc
       0.0032336055 -0.05980758 0.06032667 -0.023052879
000070 a1 80 dc bc eb ae 13 bb 43 69 ea bc 49 41 41 bd
       -0.026916804 -0.002253468 -0.028614646 -0.0471814
000080 35 49 f3 bc 24 ee 32 bd 1a 29 5f 3d 21 1c 11 bd
       -0.029697994 -0.04368414 0.054482557 -0.035427216
000090 9b 5f 4e 3c a4 ca 09 bc 99 43 06 3d 5e 50 36 3d
       0.012596036 -0.00841013 0.03277931 0.044510238
0000a0 bc 90 44 bd 0d 3b 21 3d e4 b4 16 bd 1c 41 7e bd
       -0.047989592 0.039362956 -0.036793604 -0.062073812
0000b0 e6 9c 2d 3d 51 77 2f bd 29 b3 78 bd ed be 69 3c
       0.042385958 -0.0428384 -0.060717735 0.014266712
0000c0 81 f0 e8 b9 cb c7 bd bc 4c ba 2c bd 82 0a c2 3c
       -0.00044429678 -0.023166558 -0.042169854 0.023686651
0000d0 56 1e a8 3b ea b3 9d bc 8c 03 41 3b 22 b2 00 3c
       0.0051305695 -0.019250829 0.0029451577 0.00785497
0000e0 b7 2b 02 3d 4f 26 4d 3d 55 e6 48 3d 36 67 b3 bc
       0.03177997 0.050085362 0.049047787 -0.0218998
0000f0 c4 ad 5b 3d 83 5c 4f bd 12 da 6e 3d e9 a1 ee 3c
       0.053632513 -0.050625335 0.058313437 0.02912994
000100 61 5b 26 bd 03 58 44 3c a0 2e b6 bc 5f e1 1e bd
       -0.04061449 0.011983874 -0.02223903 -0.03878915
000110 e0 95 53 3c 69 72 37 3c 49 21 63 bd 39 63 20 3d
       0.012914151 0.011196711 -0.055451665 0.039157126
000120 a9 3a 7d bd 84 82 61 3d 30 10 e6 bc f0 fa aa bc
       -0.06182352 0.05505611 -0.02808389 -0.02087161
000130 f8 31 84 bc 93 42 2a 3d 38 63 25 bd bd 47 30 3d
       -0.016137108 0.041567396 -0.040377825 0.043037165
000140 bf 68 43 3d e2 dc 9b bc 1c 5a eb 3c 11 80 0d 3d
       0.047707316 -0.019026224 0.028729491 0.03454596
000150 4d 91 2a 3d 18 41 1a bd 77 7f 1f 3d c6 82 6c bd
       0.041642476 -0.037659734 0.03893992 -0.057741903
000160 a8 57 2e 3d 70 98 94 3c fc 02 1d 3d ed 4f 52 3d
       0.042564064 0.018139094 0.038332924 0.051345754
000170 59 01 d7 3c 7f 1b 11 3d c6 07 5d 3c dc 2f 1e bd
       0.02624576 0.035426613 0.013490623 -0.03861986
000180 d1 a3 29 3d cd 4d 27 bd d9 08 0c 3d 32 23 d5 3c
       0.041415993 -0.04084568 0.034188125 0.026017759
000190 65 fd 79 3d 6a 57 42 3d 00 1b 4c bd 66 06 57 bb
       0.06103267 0.047446646 -0.049830437 -0.003281021
0001a0 25 f6 11 3d 7f 75 f5 3c f3 ec 27 3d 21 b5 69 ba
       0.035635132 0.029963253 0.040997457 -0.0008915235
0001b0 03 b2 60 3d bb 60 41 3b 6f 3e dc bc 40 7a f7 bc
       0.054857265 0.0029507119 -0.02688524 -0.03020966
0001c0 5d d0 2e 3d 2f 26 48 3d 1e c5 47 3d db e2 66 bd
       0.04267918 0.04886454 0.04877197 -0.05636869
0001d0 74 98 ae bb 58 d0 13 bc e4 db d6 3b 2e 02 ad 3c
       -0.0053282324 -0.009021841 0.0065569747 0.021119203
0001e0 21 b7 49 3d 5f 21 7c 3b 65 bc 04 bd 8c ff 46 bd
       0.04924691 0.003847204 -0.03240623 -0.048583552
0001f0 25 4e 86 3b 4a 90 56 3d 06 58 c4 3c 6e ee dc bc
       0.004098671 0.0523837 0.023967754 -0.02696916
000200 ee e6 03 bd a9 24 37 bc a0 b0 78 bc 8c 28 db bc
       -0.032202654 -0.011178174 -0.015178829 -0.026752733
000210 42 77 28 bd 1e c2 0b 3d fb 19 74 3c df 68 27 3d
       -0.041129358 0.03412067 0.014898772 0.040871497
000220 dd 51 42 bc a3 13 39 bd da a7 68 3d 79 23 47 3d
       -0.011860338 -0.045184743 0.0568007 0.048617814
000230 12 e7 48 3d 52 1b a0 3b 7e 7e 5d 3d 58 aa 76 3a
       0.04904849 0.0048860693 0.05407571 0.00094095385
000240 8f 0b 80 bc c1 09 52 3d 46 33 f3 3c e4 b8 46 3d
       -0.015630512 0.051278833 0.029687535 0.04851617
000250 4b e7 56 3b 90 29 44 bc d3 9a 45 bd c8 2a 10 3d
       0.003279167 -0.0119728 -0.048243355 0.03519705
000260 80 d5 64 3d df ad 2d bd e1 6b 54 bd 74 42 20 bc
       0.055867672 -0.042402145 -0.051860694 -0.009781469
000270 ab a1 3f 3d f9 fe 3b bd 12 7b 02 3d 82 f7 17 3d
       0.046785038 -0.045897458 0.03185565 0.037101276
000280 48 87 6a bd e5 71 5c bd 5d 00 3d 3d 46 e1 03 bd
       -0.05725792 -0.053819556 0.046142925 -0.03219726
000290 dc 4d f0 3c c0 ba f3 bb b5 5b 4e 3d f6 1c d3 3c
       0.029334001 -0.007438034 0.050380427 0.025770646
0002a0 4c b8 71 bc 26 db b9 bc 46 04 d7 3c ca b1 0a 3b
       -0.014753412 -0.022687506 0.026247155 0.00211631
0002b0 7a 4c 04 3c e8 5f 75 bc 76 aa 47 bd 82 2b 2f 3c
       0.008074874 -0.014976479 -0.04874655 0.010691525
0002c0 51 b4 28 bd e5 ed 51 bd e4 3a 2f 3d c2 e6 44 bd
       -0.041187588 -0.051252265 0.04278077 -0.04807163
0002d0 7e ef af 3c 52 56 f0 bc 28 5c 4e bc f3 5c 82 3d
       0.021476503 -0.029338036 -0.012595214 0.06365385
0002e0 03 ed 2c 3d 18 88 47 3d b3 c2 27 3c db a4 3d bd
       0.04221822 0.048713773 0.010239291 -0.046299797
0002f0 0f 1b 94 bd f3 16 12 bc c0 1c be bc ec 5a fc 3c
       -0.072317235 -0.008916604 -0.023207068 0.030805074
000300 5a 2e 19 3d 81 46 3d bd 90 7d a4 bc 7d 8f d4 ba
       0.03739772 -0.046209816 -0.020079404 -0.0016217079
000310 9b a4 3a bd 25 71 b7 3c 1f 9a 3c bd db cb af 3c
       -0.045567136 0.022392819 -0.04604542 0.02145951
000320 01 4e 3d 3c 0a b0 04 bc 86 5c 43 3d 96 ca 51 bc
       0.011554242 -0.008098612 0.04769566 -0.012804648
000330 c2 d7 f7 ba 72 14 d1 3c 7a 2b 6f bc 86 38 ff 3c
       -0.0018908905 0.025522444 -0.014597768 0.031154882
000340 c5 35 7b bd 83 de 41 3d 6f 56 8f 3c 8a 8e b0 bc
       -0.061330575 0.047331344 0.01749727 -0.021552343
000350 d3 5d 2d bd a6 77 0f 3d 3c 3e db bb 75 9c e2 bc
       -0.042325806 0.035026215 -0.0066907685 -0.027662495
000360 1c b3 8a 3a cc d7 92 3c d2 1d 6a bc ce fb b4 3c
       0.0010581943 0.017925166 -0.014289336 0.022092726
000370 4c e8 b8 bc db c3 c5 3b ee 37 2c 3d 5e 66 71 bc
       -0.022571705 0.0060353107 0.042045526 -0.014733879
000380 cd 2b a3 bc bc c6 07 3d 70 93 54 3d a1 33 a1 3c
       -0.019918347 0.033148512 0.05189842 0.019677939
000390 c3 6a 35 3c 34 fe 21 bd e3 23 d0 bc 28 26 75 3c
       0.011072817 -0.039549068 -0.025407737 0.01496271
0003a0 09 1a 03 3c 0c 55 09 bd 94 28 f1 bb 36 eb 01 3d
       0.008001813 -0.033528373 -0.0073595736 0.031718455
0003b0 78 53 1e 3d 6a 3f 08 3d 5b 6d 23 bd 46 76 7b bd
       0.03865382 0.0332636 -0.03989921 -0.06139209
0003c0 2c c0 3a bb a6 73 d9 3c 83 f0 2e 3d 76 db 40 3c
       -0.002849589 0.026544403 0.04270984 0.011771074
0003d0 a9 60 86 bc ed 69 21 bd c0 4d 1b 3b cd 53 78 bc
       -0.016403513 -0.03940766 0.0023697466 -0.015156698
0003e0 51 a2 a4 bc 2d 64 de 3a 14 9e 2a 3d 4f 4d 62 bc
       -0.02009693 0.001696711 0.04165466 -0.013812377
0003f0 80 9f 44 3c 16 01 81 bc bf a6 e5 bc 14 86 47 bd
       0.012000918 -0.015747588 -0.028033612 -0.04871185

fp_projection.fc2.bias f4 [64]
000000 cb 49 8e bc 20 f5 4c bd 22 b9 83 3d 4c e5 45 3d
       -0.017369172 -0.050038457 0.06431796 0.048314378
000010 00 a5 59 bd 65 ce 68 3d a5 0f 90 3c 04 c1 e0 bc
       -0.053135872 0.05683746 0.017585585 -0.027435787
000020 bd 25 79 bd 06 df 28 3d 1c 9b 78 3d be 3f 81 bd
       -0.060827006 0.041228317 0.0606948 -0.06310986
000030 06 8b 28 bd ea 2b b5 bb 3b 04 51 bd c4 72 40 bd
       -0.041148208 -0.0055289166 -0.051029425 -0.04698445
000040 8e 09 49 3d fc 5d 08 bd d3 6f 94 bb c5 9b 21 bd
       0.049081378 -0.033292755 -0.004529932 -0.039455194
000050 60 10 bb 3c 67 d7 ba 3c 3c 50 6f 3d 7b b9 d1 bc
       0.022834957 0.02280779 0.058426127 -0.02560114
000060 b6 68 69 bd 8d b4 cb bb 1f 49 39 bd d1 b5 d7 3c
       -0.056984626 -0.0062165917 -0.04523575 0.026331814
000070 d6 b3 6c bd 44 10 c1 3c 05 66 79 bd 26 c1 3c bd
       -0.057788692 0.023567326 -0.06088831 -0.04608264
000080 8b 8c 61 bb 5c ee 0b 3d d0 76 17 bd 9e 46 3c 3d
       -0.0034416046 0.034162864 -0.036978543 0.045965783
000090 11 77 b0 bc 94 f1 bd bc 0f 69 5e 3d 62 76 36 bd
       -0.02154115 -0.023186482 0.05429941 -0.044546492
0000a0 c9 42 45 3d 5c 0d 65 3d 73 57 02 3d 0b b9 e6 3c
       0.048159394 0.055920944 0.03182168 0.028164407
0000b0 48 55 64 bd 6f 39 f3 bc 9d 20 f3 3c 66 70 3d bd
       -0.055745393 -0.029690472 0.029678637 -0.04624977
0000c0 42 ae 30 3c 13 6b 35 bd f5 db e5 bc 7e 1a 36 3d
       0.010783734 -0.044291567 -0.028058985 0.04445886
0000d0 29 a8 02 3d 60 d6 12 bd 15 e4 61 3d 55 b4 9f bc
       0.03189865 -0.035848975 0.055149157 -0.019495169
0000e0 7a 8f 08 3d 29 9a 82 3c 06 68 61 3d 1d f4 df bc
       0.033339955 0.01594265 0.055030845 -0.027338082
0000f0 a5 a3 63 3d 59 db a1 bb 15 8d 1b bd be fc dd 3c
       0.055575985 -0.0049394784 -0.037976343 0.027098056

res_time_projection.weight f4 [64, 1]
000000 12 e3 12 bf a5 49 12 3f 4c 45 07 3d 13 57 2f bf
       -0.5737773 0.5714362 0.03302507 -0.6849224
000010 1f ff 32 bf 1c 14 7b 3b 20 1b df bd 88 0f 28 3f
       -0.69920534 0.0038311547 -0.108938456 0.656487
000020 51 c7 12 bd 0d b6 72 bf 37 60 7d bf c3 86 c4 be
       -0.035834614 -0.9480904 -0.9897494 -0.38384065
000030 cd 50 9e 3e 8b 32 f6 3e 50 60 14 bb b1 b5 eb be
       0.3092102 0.48085436 -0.0022640415 -0.46037057
000040 4d af 6a be df 14 b0 3e ce 07 5d 3f 72 56 7d be
       -0.22918434 0.34390923 0.86340034 -0.24740008
000050 9f 4e 32 3e 8b 71 5f be 7c a8 60 be 08 42 6a bf
       0.17412804 -0.21820657 -0.21939272 -0.91507006
000060 94 96 10 3f 7e 41 74 3f 64 41 0e 3f 85 6d 5a bf
       0.56479764 0.95412433 0.5556853 -0.85323364
000070 08 28 1c 3f ca d8 37 3f b1 52 5b be 38 da 05 3f
       0.6099858 0.7181517 -0.21418263 0.522861
000080 6b 9b aa be 40 f6 df 3e 81 e6 65 bf 03 f4 a3 3d
       -0.333217 0.4374256 -0.89804846 0.08005526
000090 eb f9 13 3f c2 af e8 bd ad 99 c9 bd 7d e9 14 bf
       0.5780322 -0.11361648 -0.098437645 -0.58168775
0000a0 18 3f 0a 3e 8a 88 b0 be a9 4d cd be ca 3f 38 3f
       0.13500631 -0.3447917 -0.40098312 0.71972334
0000b0 ac 40 3e 3e b4 ba 52 bf c5 fa bf 3e ea 0a 18 3e
       0.18579358 -0.82316136 0.3749601 0.14847913
0000c0 bc 50 63 bf a0 9f 7e bf c0 ae 21 3f 29 5d 06 3f
       -0.88795066 -0.9946232 0.6315727 0.524859
0000d0 a0 c5 1c be 58 4d 3f 3f 89 b8 19 3f 8f ac 67 3f
       -0.15309763 0.7472739 0.60047203 0.9049768
0000e0 0a 4d 3a be f5 da 44 3e b3 68 53 3f 2a 9f 37 3e
       -0.1819345 0.1922415 0.82581633 0.1793181
0000f0 0f 31 dd 3d c9 e3 ee be b3 1f 6e be 73 ac 75 be
       0.10800373 -0.4665816 -0.2325428 -0.23991565

res_time_projection.bias f4 [64]
000000 aa bb c0 be 5c 55 c2 be 8f 44 cb bd ff 46 54 3f
       -0.37643176 -0.3795575 -0.09925186 0.8292083
000010 21 4f ce bc 69 9c 18 bf 87 9f cc 3e 88 e5 c5 bd
       -0.025184216 -0.5961366 0.3996546 -0.0966292
000020 8b 46 08 3f 8f 6d 72 3e 83 04 6c 3f 54 b7 fa be
       0.5323264 0.23674606 0.92194384 -0.48967993
000030 bd 5c 17 3f 84 3b ea be b6 5e 1f 3e 77 9f fc be
       0.5912588 -0.45748532 0.15563473 -0.49340412
000040 06 8e 3c bf 1b 98 e1 3d 8a 3d ef bd 36 14 a6 3e
       -0.7365421 0.1101534 -0.116816595 0.32437295
000050 ff bf 3e 3f fd e2 0b 3f dd 85 c2 3e 50 73 f3 3d
       0.7451171 0.5464323 0.37992755 0.118872285
000060 e8 75 3d 3d bf 08 49 3f f3 1d 14 bf 3d bc ae be
       0.046255022 0.7852897 -0.578582 -0.3412799
000070 4a eb c7 be 5f 34 b4 3d 93 44 52 3f 4a 71 6c 3f
       -0.390467 0.087990515 0.82135886 0.92360365
000080 1f 7f aa be ee cf 2f 3f c1 db 57 bf 23 10 47 be
       -0.3330011 0.6867665 -0.8431969 -0.1943975
000090 59 1b 0c bf 9f 4e ab be 85 26 0d 3f 80 39 00 bf
       -0.5472923 -0.3345842 0.551369 -0.5008774
0000a0 d6 ab a8 be 3f 70 d6 be 70 44 8f 3e 5f 15 45 bf
       -0.329436 -0.41882512 0.279819 -0.76985735
0000b0 1c fc 66 bf 9d d7 42 bf 55 c2 d6 3e fb ad aa bd
       -0.9022844 -0.7611025 0.4194514 -0.083339654
0000c0 a0 b7 11 be a9 b8 63 3e 5f b9 01 bd f5 bf 63 bf
       -0.14230204 0.22238411 -0.031670924 -0.8896478
0000d0 7a 63 6d bf 7a a0 31 bf 54 59 57 bb f3 34 32 bf
       -0.92729914 -0.6938549 -0.003285964 -0.69612044
0000e0 6e ea 9a be e6 55 a5 be 53 ac 20 3f 76 33 cc be
       -0.3025698 -0.32292098 0.62762946 -0.39883012
0000f0 4f 83 e6 be 5e ec 1d bf fc 2b 3e 3e 93 55 7c bf
       -0.45022056 -0.6168879 0.18571466 -0.98568076

temp_projection.weight f4 [64, 1]
000000 e3 e2 4a bf c7 23 45 bf 98 ea 20 3c ca 53 89 bd
       -0.7925245 -0.77007717 0.0098215565 -0.067054346
000010 ee e8 93 3e 65 37 65 3f be 78 48 bf cd 94 00 3e
       0.2888865 0.8953765 -0.7830924 0.12556763
000020 1d 15 d4 3e 19 e4 00 be bd 72 b8 3e 0a 5f 0d 3f
       0.41422358 -0.12587012 0.36025038 0.55223143
000030 84 89 a9 bd 77 49 8b be 1f f8 61 3f 9a cd 60 3f
       -0.08278182 -0.27204487 0.8826923 0.87813723
000040 99 4d da bd 2e 3a 2c be dc 6a 67 bf 3d 40 f7 3e
       -0.10659332 -0.16819069 -0.9039743 0.48291197
000050 49 0c 54 3e d1 72 84 be 64 8d 38 bd 57 c9 5e bf
       0.20707811 -0.25868848 -0.045056716 -0.8702597
000060 00 69 70 3f f9 56 af be 58 b6 86 bd 23 36 57 be
       0.9391022 -0.34246042 -0.06577748 -0.21016745
000070 47 0c 0d 3f a2 40 3a bf 5e 70 2e bf b6 2e 5d 3f
       0.5509686 -0.7275487 -0.6814021 0.863994
000080 34 0a 1f 3f 1d f3 b1 3e 78 51 5e 3f 2b 45 15 3f
       0.62124944 0.34755793 0.8684306 0.58308667
000090 b4 ff 6a be bb 83 f6 3e ae 6f 49 3e 1e f6 31 bc
       -0.22949106 0.48147377 0.19671509 -0.010861902
0000a0 d1 fa 53 bf db e7 eb bc b1 08 6d 3f c4 5c 0b bf
       -0.8280459 -0.02879708 0.9259139 -0.54438424
0000b0 89 ae 00 bf 46 7f c0 be c7 a9 31 3f ef 13 54 be
       -0.5026632 -0.37597102 0.69399685 -0.20710729
0000c0 58 53 69 3f 51 c3 57 3f 7e 0a e7 3c 68 e5 b1 bd
       0.911428 0.84282404 0.028203245 -0.08686334
0000d0 5e da ff 3e 1f 45 61 3f 9b 1c 9d 3e c2 d4 69 3f
       0.49971288 0.87996095 0.30685887 0.9134027
0000e0 92 cd 29 3f 1d 9b 0c 3f 23 d2 9e 3e a0 1a 5c 3f
       0.663293 0.54924184 0.31019697 0.85978127
0000f0 02 40 56 3f e4 ee 06 bf 98 64 71 bf b5 d4 bb be
       0.8369142 -0.5270827 -0.9429412 -0.3668572

temp_projection.bias f4 [64]
000000 4e 62 27 3f e5 cc fb be ef a4 2a bf f6 70 c8 3d
       0.65384376 -0.4917976 -0.6665792 0.097871706
000010 7b d1 1a bf 7e 58 20 bf 04 25 47 bf 27 97 9d 3d
       -0.6047589 -0.6263503 -0.77790856 0.07694846
000020 3d 90 41 bf b7 1e 1e 3e 7e 26 30 3f 41 88 24 bf
       -0.75610715 0.15441404 0.68808734 -0.64270407
000030 5c 20 4a bf f0 89 a8 3e b7 80 5d 3e ab d3 0a bf
       -0.78955626 0.32917738 0.21631132 -0.5422923
000040 25 4d 7a bf 49 c3 de 3e 1a ac 70 be 9e 2e 73 3e
       -0.97773963 0.43508366 -0.23503152 0.23748252
000050 7b 35 cc be d8 36 d9 be ec a1 4e bf 50 76 48 bf
       -0.39884552 -0.42424655 -0.80715823 -0.7830553
000060 b7 f7 59 3e 14 e0 29 bf ef ad 65 bf ac e9 12 bf
       0.21285902 -0.6635754 -0.89718527 -0.57387805
000070 05 96 4b 3f 1e c8 7a 3f e1 37 3e 3e d6 19 42 3f
       0.79525787 0.97961605 0.18576004 0.7582067
000080 6f 94 0a 3f 77 43 0b bf d7 10 25 bf 1a 61 b1 3e
       0.5413274 -0.5439982 -0.6447882 0.34644395
000090 28 35 4a bf af 29 51 bd 44 dd 79 bf 95 c1 17 3f
       -0.7898736 -0.051065143 -0.9760325 0.5927976
0000a0 4a 38 50 3f df d2 39 bf 03 da 01 be ee d5 3f bf
       0.8133589 -0.7258739 -0.12680821 -0.74935806
0000b0 3b 54 77 3f a4 d9 a4 3e 4e b7 d9 be e3 b8 01 3e
       0.966129 0.32197297 -0.42522663 0.12668185
0000c0 1d 8c 1f 3f 88 54 3a be 64 68 44 3f bc ab 09 bf
       0.6232317 -0.18196309 0.7672179 -0.5377767
0000d0 97 2e 1e 3f 92 f2 1d bd 48 b5 2e 3f e8 6d 24 3f
       0.6178984 -0.03856141 0.68245363 0.64230204
0000e0 91 40 d2 3e 14 0d 6f 3f b8 25 81 3b 84 3d 77 3f
       0.41064885 0.9337933 0.003941264 0.9657824
0000f0 37 ab 58 be 0b d1 86 be 52 27 10 be 2e bf cf 3e
       -0.21159063 -0.26331362 -0.140775 0.40575546

LayerNorm.weight f4 [64]
000000 35 b7 80 3f da 82 7f 3f 77 99 7e 3f 48 ce 7e 3f
       1.005591 0.9980904 0.9945292 0.9953351
000010 b2 d5 7e 3f 79 71 7d 3f 97 3b 7f 3f 69 5b 7f 3f
       0.99544823 0.9900127 0.997003 0.99748856
000020 13 33 7e 3f b9 f7 80 3f 7c b0 80 3f 3b a4 7f 3f
       0.99296683 1.0075599 1.0053859 0.9985997
000030 b3 5a 7d 3f 9d 04 80 3f 1c 0e 7f 3f be 05 80 3f
       0.9896652 1.0001408 0.99630904 1.0001752
000040 93 7e 7f 3f 45 54 7d 3f 9e 2b 7f 3f 27 4d 7f 3f
       0.9980251 0.9895671 0.9967593 0.997271
000050 05 58 7e 3f d5 8c 7f 3f f6 fd 7d 3f 7a c1 7f 3f
       0.9935306 0.9982427 0.9921564 0.99904597
000060 8b 12 81 3f a6 82 7e 3f a5 03 7f 3f 66 5a 7f 3f
       1.0083784 0.99418104 0.99614936 0.9974731
000070 1a c7 7e 3f cd 5c 80 3f 67 60 7d 3f 0f bb 7e 3f
       0.99522555 1.002832 0.98975223 0.9950418
000080 f8 2a 7e 3f 92 3c 7e 3f c1 bf 7e 3f 88 51 7e 3f
       0.99284315 0.9931117 0.99511343 0.99343157
000090 9b 21 80 3f f2 4c 7f 3f 87 1f 80 3f 32 dc 7e 3f
       1.0010256 0.99726784 1.0009621 0.9955474
0000a0 16 6d 7e 3f a9 ab 7d 3f 5d 60 80 3f 9b 67 7f 3f
       0.993852 0.9909006 1.0029408 0.99767464
0000b0 4f b1 7e 3f ef 95 7e 3f c3 96 7f 3f 34 3d 7f 3f
       0.994893 0.9944753 0.9983942 0.99702764
0000c0 ee b6 7f 3f d6 da 7f 3f 8e 26 7f 3f dc f5 7e 3f
       0.99888504 0.9994329 0.99668205 0.995939
0000d0 22 59 7e 3f 8e fd 80 3f 1b fe 7e 3f 29 7e 7e 3f
       0.99354756 1.0077379 0.99606484 0.99411255
0000e0 0c dd 7e 3f e7 01 7f 3f 74 3e 7f 3f 0f 0b 7e 3f
       0.9955604 0.9961228 0.9970467 0.99235624
0000f0 e8 42 7f 3f 6e 75 7e 3f a6 0f 80 3f ed 3a 7f 3f
       0.99711466 0.99397933 1.0004776 0.9969929

LayerNorm.bias f4 [64]
000000 80 6b 88 ba 0e 41 a0 3a 04 ef 2c 3b fd e2 c1 bb
       -0.0010408014 0.0012226419 0.0026387582 -0.0059169517
000010 db b5 80 3b 85 ff 85 3b 86 6f d1 39 23 de a0 b9
       0.003927929 0.004089298 0.00039946678 -0.00030683083
000020 48 9e a4 3a 2d d6 13 3b ce a5 79 3b 84 9a 4b 3a
       0.0012559379 0.0022558079 0.0038093212 0.000776686
000030 0b d0 c7 ba c9 e7 83 38 d2 65 c3 39 fc 01 1f ba
       -0.0015244497 6.28974e-05 0.0003726916 -0.00060656643
000040 66 e9 94 3a 79 82 92 3a bc 85 6d 3b 52 88 a3 ba
       0.0011361062 0.00111778 0.0036243042 -0.001247654
000050 bc 77 82 bb 1b 70 e4 3a bb f2 4a 39 b8 28 7e b7
       -0.0039815586 0.001742843 0.00019354645 -1.514906e-05
000060 fd 16 9d 39 f1 b1 62 bb 95 cb ef 3a 72 85 fb b9
       0.000299625 -0.0034590925 0.0018294925 -0.00047973875
000070 3e f2 58 ba 15 b6 8a ba 18 f8 77 ba a0 24 54 bb
       -0.0008275843 -0.0010582829 -0.0009459271 -0.0032370463
000080 9d 25 8a bb e4 72 bc bb af 4a 4e 3b c9 fb 4e bb
       -0.0042159096 -0.0057510007 0.003147762 -0.003158318
000090 be a0 04 bb 1a e2 bb 3a 31 8b 62 bb cd b0 4f ba
       -0.0020237411 0.0014334351 -0.0034567828 -0.0007922769
0000a0 47 cc 71 bb 89 02 4b b9 0b 00 e7 3a af 1c 33 38
       -0.003689544 -0.00019360533 0.0017623914 4.270364e-05
0000b0 5e 73 2d bb 65 37 c4 39 7c f3 25 3b f6 b9 bf 37
       -0.002646647 0.00037425305 0.002532213 2.285557e-05
0000c0 6c 27 b1 ba 75 9b 27 ba c8 3f 99 bb 46 fd fb 3a
       -0.0013515777 -0.00063937093 -0.004676793 0.0019225262
0000d0 35 af 0a bb 48 ae 8a ba f6 5c 52 bb 3c 62 ab bb
       -0.002116156 -0.0010580504 -0.0032098866 -0.0052302163
0000e0 7d ac 4a bb 04 1e d4 36 94 47 13 bb 55 bd 77 bb
       -0.0030925565 6.3215866e-06 -0.0022473084 -0.003780206
0000f0 45 c0 54 bb 3e 95 4a 3b 68 5a 35 3b 51 71 08 bb
       -0.0032463234 0.003091171 0.0027672295 -0.0020819495

yield_pred_head.fc1.weight f4 [256, 64]
000000 fe 5c 9b bd 54 a4 2f 3d a7 dc ee bd d3 55 af 3d
       -0.07586096 0.042881325 -0.1166318 0.085612915
000010 72 34 29 3c 00 54 fb bc c7 d2 ae bd fa 5a b7 3b
       0.010327445 -0.030679703 -0.08536296 0.005595562
000020 a5 d5 d2 bb 6b 94 17 3d 9a d6 b0 bb 3d 40 1f bd
       -0.00643416 0.037006777 -0.0053966762 -0.03887962
000030 6d fe b5 bd 44 0d 6b 3d e9 24 b8 bc 5a 21 87 bd
       -0.088864185 0.057385698 -0.022478538 -0.06598158
000040 f8 82 40 3d 39 f2 5a 3d 95 20 9c bd f4 87 00 bd
       0.0469999 0.053453658 -0.07623402 -0.031379655
000050 ad 38 48 3d 68 27 15 3d 6e 95 bb bd 20 f4 bf bc
       0.048882175 0.036414534 -0.09159361 -0.023431838
000060 b8 83 e4 bc ed 3a 4d 3c 65 38 36 bd d5 f1 75 bd
       -0.02789484 0.012526256 -0.044487376 -0.060045082
000070 1d e2 9c 3d 5b 30 fa 3b f2 53 c5 bd 15 c8 a9 bd
       0.07660315 0.007635159 -0.09635152 -0.08290116
000080 72 ec a4 3d bb e6 2e bd cb d6 d1 3d eb 7d f1 bd
       0.08052911 -0.04270051 0.10246047 -0.11791595
000090 3b 77 ac 3d f2 a3 1f bc 91 a1 b2 3d 73 9d 4a bd
       0.08421179 -0.009743677 0.087222226 -0.04946656
0000a0 4b db 9e bd f6 f1 13 3d 8e 73 92 3d cc 37 a9 bd
       -0.077566706 0.036119424 0.071509466 -0.082625955
0000b0 69 48 da 3c 48 2d d3 bc 0c c7 6a bd 1f 60 b1 3d
       0.026645856 -0.025778428 -0.057318732 0.08660912
0000c0 05 40 fc 3b e9 9c ef bc 1a b5 a6 3d 0d 1c b1 bb
       0.0076980614 -0.029249625 0.08140011 -0.0054049552
0000d0 c8 89 f8 3d ce 2f aa 3d 90 e5 8d 3d fd f8 fc 3d
       0.12135655 0.08309899 0.06928551 0.12352178
0000e0 14 0d b2 3d 31 e9 fe bd 83 2e ff bd bc c4 85 3d
       0.08693901 -0.124468215 -0.12460043 0.06531665
0000f0 a6 bf 89 bc b1 f7 3c 3c 7a 21 44 3c 49 ab 60 3d
       -0.016815018 0.011533664 0.011970872 0.05485085
000100 4a b3 96 bd 88 b5 fb 3c 35 9c 67 bd f1 31 d1 3d
       -0.073584154 0.03072621 -0.056545455 0.10214604
000110 80 ba bd bd 9d 45 a5 bb 41 84 e0 bd 93 dc 18 bd
       -0.09264088 -0.005043699 -0.109627254 -0.03731973
000120 3b 45 d7 bd 3a a6 c3 bd 64 f8 a4 3d 11 0c 8e 3d
       -0.105112515 -0.095531896 0.08055189 0.06935895
000130 b4 9f cc 3d 9b 87 ee 3d 11 89 9a 3d 1a 0d cd bd
       0.099913985 0.116469584 0.075456746 -0.100122645
000140 1b 4c 28 3d 43 f9 06 be 2d ef d5 3d 53 b8 ce bd
       0.041088205 -0.13181023 0.1044601 -0.10093751
000150 90 d6 ee 3d a2 58 88 3d 46 e1 0a bc b0 0b ce 3c
       0.11662018 0.0665753 -0.008476561 0.025152057
000160 ec 39 bf bd 37 1d b1 3d 82 79 81 bb 61 51 6b bd
       -0.093372196 0.086481504 -0.0039512524 -0.057450656
000170 64 0c bf bc 3e 39 e8 3b fa a4 f2 bc b6 5a d0 3d
       -0.023321338 0.007086902 -0.029619683 0.10173552
000180 30 11 9c 3d e7 aa aa 3c 42 41 66 3d 87 17 9c bc
       0.07620466 0.020833446 0.05621458 -0.019054187
000190 da d0 b6 bd 63 5d 96 bd e8 08 b5 3c 68 e5 bf bc
       -0.08926554 -0.07342031 0.022098973 -0.02342482
0001a0 42 7f c6 3c 38 fc 15 3d a4 d5 be 3d 1a 4b d2 3d
       0.024230603 0.036617488 0.093180925 0.10268231
0001b0 ad 7f 7f 3d 2a d9 a0 ba 4a b7 ae 3d 2d af d6 bd
       0.06237762 -0.0012271751 0.08531053 -0.10482631
0001c0 e0 9b 37 bb 9b fb 05 bd 2d 82 cd bd e0 2b 28 3d
       -0.0028016493 -0.032710653 -0.10034595 0.041057467
0001d0 5d a8 0c 3c de 85 18 bc 76 cc b3 bb 04 7b a3 3d
       0.008585063 -0.00930926 -0.00548702 0.07982448
0001e0 42 f3 c6 bc 37 0d f4 bd 98 d7 54 3d 0f 4f 55 bd
       -0.024285916 -0.11916583 0.05196342 -0.05207735
0001f0 f4 24 ae bd 24 0f f1 3d 43 0b 84 bd f1 e5 c8 ba
       -0.08503142 0.11770466 -0.064474605 -0.0015327317
000200 4f 5b 97 bd 21 59 ad bc 62 38 4f bd 8c 53 74 3c
       -0.073904626 -0.021160664 -0.05059088 0.014912497
000210 a0 4c ec 3c 22 5c 92 3c d4 6b 74 3d 43 60 cb 3d
       0.028845131 0.017866198 0.059673145 0.0993047
000220 4d c7 25 bd 1e f9 a3 3d 20 b9 d4 bd 65 df c9 3c
       -0.04047327 0.080065 -0.10386872 0.024642656
000230 0a 69 9f bd f1 e6 c2 bd 83 bd e7 bd 30 a5 fd 3d
       -0.077837065 -0.09516705 -0.11315443 0.12385023
000240 4e 2e b8 bd c6 89 02 bd cb 74 f0 bd 0f 3f 25 3b
       -0.08993207 -0.031869672 -0.117410265 0.0025214588
000250 0e 65 a8 bd 01 9b ea bd 09 21 6f 3c ea d8 26 bd
       -0.082224 -0.11455346 0.014595279 -0.04073421
000260 55 de 12 3d d1 19 98 bd 88 ca f6 bd fb 3b 6a bd
       0.035856564 -0.07426799 -0.120503485 -0.057186108
000270 04 3f f1 3d 5d 7f ec bd 32 2e 0f 3d 72 2b e5 3d
       0.117795974 -0.1154773 0.034956165 0.11189927
000280 0d 62 c4 3d ae 7a fc 3d c9 d9 da 3d 93 06 7a 3c
       0.09589014 0.12328087 0.106860705 0.0152603565
000290 1b 1c ae 3d 6c b3 11 bd 02 44 30 3b 32 37 f3 3d
       0.085014544 -0.0355715 0.0026896005 0.11875762
0002a0 f9 6b 98 bc 54 06 40 bd 16 fd de 3d 6a 5c f3 3d
       -0.018606173 -0.046881035 0.10888116 0.11882861
0002b0 ca 88 c2 bc 32 05 d3 bd 7a bb 9d bd cc 76 d8 3d
       -0.023746867 -0.10303725 -0.07701774 0.10569534
0002c0 0d 46 8c bd b4 f1 8a 3d d2 df dc bd 44 97 b6 3d
       -0.068492986 0.067843825 -0.10784878 0.089155704
0002d0 22 ad 4e bd 1e ba a6 bd b2 62 d8 3d 8b ba e4 3c
       -0.05045808 -0.08140968 0.105657 0.027920982
0002e0 ad 55 8e 3d ac 98 3c bd af cd d8 bc c8 1e c4 3d
       0.06949935 -0.046044037 -0.026465265 0.095761836
0002f0 48 57 1f 3d c1 13 37 bd 16 6f a5 bd 60 45 5d bd
       0.038901597 -0.044696573 -0.080778286 -0.05402124
000300 c0 c0 81 3d c7 17 82 ba b2 ad 5c 3d 2a dc 13 bd
       0.06335592 -0.0009925299 0.053876586 -0.036098637
000310 ad 57 db bd 21 ce fe 3d ee d4 57 3d a3 3b 85 bd
       -0.10710082 0.1244166 0.0526933 -0.065055154
000320 97 4b ce bd 35 17 22 3d 15 50 b8 3c 83 85 7a bd
       -0.10073011 0.039572913 0.022499124 -0.061162483
000330 cb af cb 3d 85 31 09 bc f2 e5 01 be 03 b2 a1 bc
       0.09945639 -0.008373623 -0.12685373 -0.019738203
000340 33 4b 82 bc fe 0c 8e bd 98 98 86 bd e0 41 87 bd
       -0.015904998 -0.06936072 -0.06572074 -0.066043615
000350 73 17 77 bd b7 ea da 3b b2 23 ab bc 3b 8f 31 bd
       -0.060325097 0.006680812 -0.020891044 -0.043349486
000360 b0 7c f7 bd 2b 9c 49 bc 02 42 18 bd 17 d4 70 bd
       -0.12084329 -0.0123053 -0.037172325 -0.058796015
000370 0a 6e ee 3d 9b e7 aa bd f9 67 ff ba 92 2b b1 3d
       0.11642082 -0.083449565 -0.0019485942 0.086508885
000380 d5 bb 00 be f7 29 87 bd 71 aa 4d 3d 39 bf 3b 3d
       -0.12571652 -0.06599801 0.050211374 0.04583666
000390 5c 8e 70 3d 46 a0 8e 3c 8e 72 88 3d 26 c5 a2 bd
       0.058729514 0.017410409 0.066624746 -0.07947759
0003a0 7e 9a 27 bd 89 dc 45 bd 2b 62 a9 bd 0e d9 fc bd
       -0.04091882 -0.04830602 -0.08270677 -0.123460874
0003b0 35 29 ea bc a6 22 63 3d 04 62 a4 3c 5b f3 dd bd
       -0.028584102 0.055452965 0.020066269 -0.10837432
0003c0 de 97 f2 bc c7 94 ca bb 1b 2c 8e 3d 72 58 ce bd
       -0.029613432 -0.0061822864 0.06942006 -0.10075463
0003d0 ac 55 a4 3d 13 48 88 bd 43 87 c5 bc a8 2e 81 bd
       0.08024153 -0.06654372 -0.02411235 -0.06307727
0003e0 da 58 c9 3a b2 0c b6 3d 4e 6d bc bd cc bd 93 bb
       0.0015361563 0.0888914 -0.09200536 -0.0045087095
0003f0 11 46 2e bc 4f 04 74 3d cb 8c 4d bd 8e a4 37 3d
       -0.010636822 0.05957442 -0.0501831 0.044834666

yield_pred_head.fc1.bias f4 [256]
000000 ae e1 64 3d e8 ba b1 bd 57 04 13 3d da 11 c7 3d
       0.055879287 -0.08678228 0.03589281 0.09720202
000010 92 ad 89 bd 7e 84 d0 3c 58 f0 87 3d 96 76 d6 bd
       -0.06722559 0.025453802 0.06637639 -0.10471837
000020 1f b6 0d 3d 6a 37 0c bd 44 7a d6 bd 95 5d 7b bd
       0.034597512 -0.034232534 -0.10472539 -0.061368544
000030 a6 46 d6 bd 78 7c fa 3c 89 6e 52 bd ab 43 d4 3d
       -0.10462694 0.03057693 -0.051374946 0.10364469
000040 3e c5 f5 bd 33 3e 7c bd b8 08 a9 3d 40 24 60 bd
       -0.120005116 -0.061582755 0.08253616 -0.05472207
000050 c3 13 af bc d0 33 c7 ba fb 91 0d bd 38 de 13 bc
       -0.021371728 -0.0015197936 -0.034563046 -0.009025149
000060 ec d4 3c 3d de 88 fe bd 4c 72 0a bd 61 09 77 bc
       0.046101496 -0.12428449 -0.03380041 -0.01507792
000070 ee 21 e7 bd fb 6c b5 bc d1 37 b3 bd 7d 65 af 3c
       -0.112857684 -0.022146692 -0.087508805 0.021410698
000080 d7 e2 a7 bd 45 ae 9b bd 4e 06 b2 bd 3d 25 e3 3d
       -0.08197563 -0.07601599 -0.08692609 0.11091087
000090 c9 68 e5 bd cf 05 d8 3c f6 96 f0 3d 49 1c fe 3b
       -0.11201627 0.026369957 0.117475435 0.0077548367
0000a0 b8 33 38 bd 13 f7 9b bd bd 34 b9 3d 8f b9 d5 bc
       -0.044971198 -0.07615485 0.09043262 -0.026089458
0000b0 6e ed 08 3d 1f 34 ca 3c 24 78 a3 3d 5e 06 79 bb
       0.033429556 0.024683056 0.079818994 -0.003799818
0000c0 3d 5e a5 bd 22 ba 84 bd 64 9a bc bd a2 4d f7 3c
       -0.08074615 -0.064808145 -0.09209135 0.030188385
0000d0 74 1d d6 bd 8b 95 6a bd e0 c4 fb bd 27 5f 91 3b
       -0.104548365 -0.05727152 -0.1229341 0.004436392
0000e0 8c 19 90 3c e1 a0 fa bd db d7 8d 3d f8 9c 1c 3d
       0.017590307 -0.122377165 0.06925937 0.038235635
0000f0 9a 7e dd 3d 90 03 f6 3d f0 73 33 3c c6 82 66 3d
       0.10815163 0.12012398 0.010952935 0.05627706
000100 e9 fd a0 3c 83 aa f3 3d ea d5 be 3d 78 2d b0 3d
       0.019652324 0.11897757 0.093181446 0.086024225
000110 6e 22 f4 bd d0 5b c4 bd 66 3d 89 3d 02 22 71 bd
       -0.119206294 -0.09587824 0.06701164 -0.058870323
000120 b4 fc c2 3d f0 dc d8 bd 54 26 a6 3d 9c 54 8e 3c
       0.095208555 -0.105890155 0.08112779 0.01737433
000130 f6 67 99 bd cd d9 6b 3b 86 c5 e0 3d 87 74 16 bd
       -0.07490532 0.0035987974 0.109751746 -0.036732223
000140 12 b0 47 bd 20 1d 7a 3c e5 c8 7c bd 8c 4a 03 bd
       -0.048751898 0.015265733 -0.061715025 -0.032053515
000150 41 d1 91 3d 34 d0 0d 3d 07 ac d9 bc 04 6f cd 3d
       0.0711999 0.034622386 -0.026571287 0.1003094
000160 1c 95 a9 bd 03 6c 3b 3d f8 70 ad bd 27 a7 aa bd
       -0.082803935 0.045757305 -0.08468813 -0.08332663
000170 05 58 d1 bd f2 2b 6d bd 09 33 59 3d 7e 0c cc bc
       -0.102218665 -0.057903238 0.053027187 -0.0249083
000180 8d 9b cd 3d 75 5c ec bd f4 e6 ef bc bc 4f b7 bc
       0.100394346 -0.11541072 -0.029284932 -0.022376888
000190 9e 4e 5c 3d 34 f1 ae 3c fc d1 eb 3d 41 0e 9e bd
       0.053785913 0.021355249 0.11514661 -0.077175625
0001a0 c7 e3 f7 bd d1 9e f3 3d a4 b3 e9 3d 80 f6 ed bd
       -0.12103992 0.11895526 0.11411217 -0.11619282
0001b0 1d 49 b7 ba 97 53 9f 3d 3d 24 af bd 10 46 e0 bd
       -0.0013983581 0.07779615 -0.08551834 -0.10950863
0001c0 30 b7 b2 3d 8d 1c 98 3b a7 55 3c 3d 56 4f d7 3d
       0.087263465 0.0046420754 0.045980122 0.10513179
0001d0 01 6d a2 bd a2 17 d5 bd 5e e4 c1 bb 55 63 fb 3d
       -0.07930947 -0.10404898 -0.005917116 0.122748055
0001e0 38 93 e9 3b e1 4a 9e bd c1 c3 a9 3d fd f2 fb bd
       0.0071281455 -0.07729126 0.0828929 -0.12302206
0001f0 f0 b1 41 3d 6b 76 de bd e9 ea fd bb 4c 6b 6a bd
       0.047288835 -0.1086243 -0.0077489507 -0.057231233
000200 fc bd 25 3d 09 94 5d 3d 6b b9 b3 3c 72 6e 64 3c
       0.040464386 0.054096255 0.021939 0.013942348
000210 3f 9f 9a 3b d4 55 bb bd 6a 56 4a bd d8 43 5c 3d
       0.0047186906 -0.0914723 -0.049398817 0.05377564
000220 30 54 ea 3d 36 5f 81 bd a8 23 58 3c 84 6a f8 3d
       0.11441839 -0.06316988 0.013192095 0.12129691
000230 81 81 08 bc 07 12 22 bd f8 0b c5 bd d2 5c ef bd
       -0.008331657 -0.039567973 -0.096214235 -0.11687626
000240 01 e0 88 3d 19 64 06 3d 4f 5e ef 3d 6a 6e d0 3c
       0.0668335 0.032810304 0.1168791 0.025443275
000250 8d b8 10 3b 2f a8 47 3d e8 19 db bd 31 1e 95 bd
       0.0022082657 0.048744377 -0.106983006 -0.07281149
000260 53 09 75 bd ba de 08 bd 99 d2 dd bc 14 28 b3 bd
       -0.059823345 -0.033415534 -0.02707796 -0.08747879
000270 cf ea 6e 3d 54 7d b8 3d 9c 77 e6 3b 0a 90 c3 3d
       0.0583294 0.090082794 0.0070333015 0.09548958
000280 eb ee 1f 3d 73 7a 97 3c 25 c9 02 bd 69 62 4b 3d
       0.03904621 0.018491006 -0.031930108 0.049654398
000290 1a 83 f3 3d ee 43 92 bd d1 55 2c 3d fd 6a d2 bd
       0.1189024 -0.07141863 0.04207403 -0.10274313
0002a0 3a 54 40 bd 6e d2 b4 bd bd 9e 86 3d 76 f6 8e 3d
       -0.046955325 -0.08829199 0.06573246 0.069806024
0002b0 94 fa b1 3d ca e4 fc bd db d8 fa 3b df 67 ac bd
       0.08690372 -0.123483256 0.0076552457 -0.08418249
0002c0 db 13 c7 bd 5e e7 f0 bb 59 02 bd 3d aa ff 77 bd
       -0.09720584 -0.0073518 0.092289634 -0.060546555
0002d0 57 65 d5 3d 5e b2 29 bd f8 0c fd 3d 01 88 f0 3c
       0.1041972 -0.04142987 0.12355989 0.029361727
0002e0 aa 20 98 3d 91 fe 95 3d c8 09 1a 3d eb ea ba bd
       0.07428105 0.07323945 0.037606984 -0.09126838
0002f0 6f a4 c1 bd 59 31 e2 3d 45 b6 c7 3d 6d 6a dd bd
       -0.09455191 0.110445686 0.09751562 -0.10811315
000300 b4 5f 20 bd 51 f9 41 bd 76 aa 8b bd c1 af 45 3d
       -0.03915377 -0.047356907 -0.06819622 0.048263315
000310 b1 88 cd 3c ed 35 3d 3d 81 2b 10 3c b2 bc 58 bd
       0.025089594 0.046194006 0.008799435 -0.05291433
000320 ce ce 2d 3d 14 5d e7 3d a7 f0 54 3d 06 d8 9b bc
       0.042433552 0.1129705 0.051987316 -0.019023906
000330 30 52 ed bd f6 0b e6 3d f7 ee e5 bd ba f4 e8 bd
       -0.11587942 0.1123275 -0.112272196 -0.11374803
000340 33 e5 0b 3d 2a 4b e6 bd b5 06 99 bc cc 9b c7 3d
       0.03415413 -0.11244805 -0.018679956 0.09746513
000350 c4 89 c5 bd 25 71 93 bd f6 40 af bd fd c1 d0 bd
       -0.09645417 -0.07199315 -0.08557312 -0.1019325
000360 24 2c a5 bd 43 ff f1 bd c9 94 93 3d d2 e5 9b bd
       -0.0806506 -0.118162654 0.07206113 -0.07612194
000370 7f 67 d7 3d b8 c4 46 3d 9f 0b 39 bc 9a 9b d6 bd
       0.10517787 0.04852745 -0.011294275 -0.104788974
000380 31 c9 63 3d bb 0a 95 3d 52 61 cd 3d 9f 61 3c 3c
       0.055611793 0.07277437 0.10028328 0.011497884
000390 51 47 e6 3d 1b d4 af bd a4 3b 4e bc c7 1e a5 bd
       0.11244071 -0.08585378 -0.012587462 -0.08062511
0003a0 91 bc 62 3d c6 4f 75 3d 6d d1 25 bd 72 b8 f5 bd
       0.055355612 0.05989053 -0.040482927 -0.11998071
0003b0 0b 05 b9 bd 4e fc 7d bd b1 de 20 3d 36 b3 bf bd
       -0.09034165 -0.062008195 0.039274875 -0.09360354
0003c0 c4 52 5b 3c ac c8 c1 3d 2b cf d7 3d 1a 48 f1 bd
       0.013386432 0.09462103 0.10537561 -0.117813304
0003d0 7d e4 15 3d be ec 88 bd d7 5b f8 3d 72 fa c0 3d
       0.036594857 -0.0668578 0.12126892 0.09422769
0003e0 25 e4 89 bd 93 5c b3 3d 68 11 8a 3d 25 58 34 3d
       -0.06732968 0.087578915 0.06741601 0.044029374
0003f0 3b cc bd 3d b3 46 df bd 3f 1b 88 3d e4 f4 4a bd
       0.092674695 -0.10902157 0.06645822 -0.049549952
