best_models/best_full_yield_models/NN_model.pt (torch, 50061 bytes, 14 tensors)

fp_projection.fc1.weight f4 [128, 64]
0.036900163 0.09875561 0.07368568 -0.050499536 0.09518698 0.07936879 -0.104881935 0.06960987
0.023027498 -0.116340004 0.084040515 0.110483244 -0.06984271 0.03659016 0.046830315 -0.05392275
0.0062234146 -0.009855175 0.10447887 0.0042071817 0.117714 -0.050463643 -0.075704545 0.11990851
0.04138508 -0.10515746 -0.11473352 -0.08616638 0.0060383445 -0.025374627 0.023349432 0.10250392
0.09650464 -0.08980153 0.040047143 -0.0668621 -0.09160405 0.08576073 0.10450674 -0.016664285
-0.005679736 -0.013727182 -0.08712011 0.048850674 -0.060645916 -0.08227269 0.040345874 0.07477492
0.009078788 -0.00804127 0.11323036 0.0020576278 -0.015758075 0.02678581 -0.032784175 -0.046062376
0.07843022 0.09909747 -0.042394962 0.06403231 0.0038807078 0.043056376 -0.007205621 0.03604881
0.04491655 -0.11370767 -0.07703158 -0.08474267 -0.10362649 -0.06220646 -0.013672598 -0.09074047
0.10092779 -0.057908393 0.12297238 -0.010759657 -0.021004742 0.12135836 0.009426713 -0.09501883
0.104765266 -0.105988294 -0.09873941 -0.06868154 -0.04905998 -0.06397425 3.899836e-05 0.08277657
-0.10269848 -0.011791634 -0.107907414 -0.107970916 -0.012161768 -0.057957567 0.02234789 0.12567982
-0.048948176 -0.065366566 0.076248236 0.009985411 0.016802754 -0.071772665 0.072267905 0.09273188
0.0040443554 -0.08320714 -0.007007606 0.03176998 0.074609034 0.0072190184 -0.10745958 0.07975292
0.0075027747 0.11403429 -0.11260035 0.082488805 -0.086491026 0.044345338 0.040038463 -0.018975249
-0.0952366 0.012292511 0.09916679 0.102525525 -0.117088325 -0.033311322 0.037736148 0.019246709
-0.026723944 -0.0060033477 0.009417915 0.002110418 -0.035031486 -0.063409045 0.070597105 -0.049791846
-0.05239068 0.004736392 -0.08423581 0.0891418 0.0723653 0.03863801 0.06268601 0.10206381
-0.079852104 -0.12114783 -0.08268667 0.06914098 -0.10269116 0.11960744 -0.036805116 0.12038778
0.01748838 0.11126825 -0.080670625 -0.056876022 0.12449951 0.105083354 -0.08149648 -0.06344686
-0.023686655 -0.033444673 -0.04897041 0.10038432 -0.08360633 -0.06573637 0.05188903 -0.03165518
0.015157535 0.048507996 0.04062639 -0.0328115 0.04386163 0.099828936 -0.08548822 -0.11156052
0.026373792 0.06705849 0.007988157 -0.097105965 -0.019475657 -0.0543334 -0.046566624 -0.004301121
-0.0221315 0.11471472 0.09865583 -0.0707507 -0.12191337 0.069448255 -0.018887216 -0.009129856
0.00847149 -0.040402617 0.029419012 -0.024746833 -0.06580356 -0.046221733 0.020536155 -0.019724427
-0.045205206 0.110201985 -0.08592401 -0.009003043 -0.008946728 -0.11468536 -0.01761033 0.107149266
0.095697895 0.06946232 0.03402155 0.09926818 0.028666949 0.02693217 -0.09432358 0.09117504
0.08901882 0.03451396 -0.107970215 0.04086965 0.007967363 -0.065637246 -0.02902899 0.053723626
0.043591965 -0.0056569027 -0.066185705 -0.073463365 0.079563655 -0.010871545 -0.11868829 0.009527801
0.053859945 0.0019077833 -0.12211 -0.016106417 0.067690074 -0.104826085 0.03376891 0.07839849
0.06002473 -0.06566341 0.07541222 -0.104204044 -0.08252186 -0.059304778 0.11129738 0.0016496498
-0.11658756 -0.11017866 -0.02092498 0.09140574 0.046377778 0.03663054 0.01682104 0.017769935
00000000: a024 173d 6240 ca3d 85e8 963d 9ad8 4ebd
00000010: 64f1 c23d 1b8c a23d 57cc d6bd 9f8f 8e3d
00000020: 2aa4 bc3c ab43 eebd 6f1d ac3d 0a45 e23d
00000030: b209 8fbd 90df 153d 25d1 3f3d 1ade 5cbd
00000040: c9ed cb3b 9a77 21bc 05f9 d53d 66dc 893b
00000050: 0a14 f13d f7b2 4ebd fc0a 9bbd 9892 f53d
00000060: 6783 293d cb5c d7bd 68f9 eabd 0078 b0bd
00000070: 4edd c53b 73de cfbc 4f47 bf3c 93ed d13d
00000080: 3aa4 c53d dde9 b7bd 7908 243d ffee 88bd
00000090: e79a bbbd 52a3 af3d a107 d63d 8a83 88bc
000000a0: 141d babb f9e7 60bc 076c b2bd a517 483d
000000b0: da67 78bd 967e a8bd b741 253d 9823 993d
000000c0: 32bf 143c 88bf 03bc 52e5 e73d 44d9 063b
000000d0: 1417 81bc ea6d db3c b348 06bd e7ab 3cbd
000000e0: 06a0 a03d 9df3 ca3d 57a6 2dbd 5f23 833d
000000f0: 7953 7e3b e25b 303d 211d ecbb eba7 133d
00000100: 6bfa 373d 91df e8bd bcc2 9dbd 918d adbd
00000110: 203a d4bd 33cc 7ebd 0803 60bc 24d6 b9bd
00000120: 3bb3 ce3d 5a31 6dbd f1d8 fb3d 4649 30bc
00000130: 2312 acbc bb8a f83d 8072 1a3c 3b99 c2bd
00000140: 2c8f d63d 6410 d9bd e337 cabd e8a8 8cbd
00000150: 1ef3 48bd ee04 83bd 2c92 2338 c386 a93d
00000160: 9553 d2bd b331 41bc 90fe dcbd db1f ddbd
00000170: 2742 47bc ea64 6dbd ec12 b73c 36b2 003e
00000180: e27d 48bd e8de 85bd 0928 9c3d d999 233c
00000190: eea5 893c 8cfd 92bd 3201 943d 36ea bd3d
000001a0: 8386 843b 8168 aabd 0fa0 e5bb 3d21 023d
000001b0: 9fcc 983d 848d ec3b c513 dcbd 8055 a33d
000001c0: d6d9 f53b cf8a e93d 039b e6bd e4ef a83d
000001d0: 3522 b1bd 75a3 353d 5fff 233d fb71 9bbc
000001e0: 680b c3bd 8766 493c f517 cb3d e7f8 d13d
000001f0: 01cc efbd 7471 08bd 3891 1a3d 46ab 9d3c
00000200: 2cec dabc bbb7 c4bb 994d 1a3c f04e 0a3b
00000210: 2d7d 0fbd 9adc 81bd 3795 903d 89f2 4bbd
00000220: 9c97 56bd bc33 9b3b d383 acbd fa8f b63d
00000230: 4234 943d e442 1e3d 8661 803d d506 d13d
00000240: 8089 a3bd 5a1c f8bd a157 a9bd c999 8d3d
00000250: be4f d2bd bff4 f43d f6c0 16bd de8d f63d
00000260: cb43 8f3c 9ce0 e33d a436 a5bd d5f6 68bd
00000270: 99f9 fe3d f135 d73d a0e7 a6bd 6df0 81bd
00000280: 840a c2bc 48fd 08bd 3295 48bd 4b96 cd3d
00000290: cc39 abbd caa0 86bd 9789 543d dda8 01bd
000002a0: 4f57 783c 52b0 463d dc67 263d 5a65 06bd
000002b0: 41a8 333d 1d73 cc3d 7314 afbd d879 e4bd
000002c0: da0d d83c f655 893d c2e0 023c 7edf c6bd
000002d0: 6a8b 9fbc b38c 5ebd a5bc 3ebd 6bf0 8cbb
000002e0: 1f4d b5bc 8def ea3d 110c ca3d bee5 90bd
000002f0: b8ad f9bd e33a 8e3d 5db9 9abc 6495 15bc
00000300: 01cc 0a3c 377d 25bd 2400 f13c dfb9 cabc
00000310: 04c4 86bd 0053 3dbd 703b a83c 1f95 a1bc
00000320: 1829 39bd 94b1 e13d edf8 afbd 8081 13bc
00000330: 4c95 12bc 28e0 eabd 8a43 90bc 1371 db3d
00000340: 42fd c33d 4342 8e3d 2e5a 0b3d 1e4d cb3d
00000350: f3d6 ea3c dba0 dc3c b92c c1bd fbb9 ba3d
00000360: 804f b63d 835e 0d3d 7d1f ddbd ef66 273d
00000370: 8b89 023c d26c 86bd 34ce edbc 4e0d 5c3d
00000380: 7d8d 323d 8a5d b9bb 5f8c 87bd f673 96bd
00000390: 45f2 a23d 911e 32bc d912 f3bd 7e1a 1c3c
000003a0: 3f9c 5c3d 960e fa3a cf14 fabd 9bf1 83bc
000003b0: 18a1 8a3d 0faf d6bd 4551 0a3d 638f a03d
000003c0: 7edc 753d 8a7a 86bd b971 9a3d ee68 d5bd
000003d0: 3901 a9bd 91e9 72bd e1ef e33d 1039 d83a
000003e0: 75c5 eebd 59a5 e1bd dd6a abbc ef32 bb3d
000003f0: a0f6 3d3d e809 163d 47cc 893c 4192 913c

fp_projection.fc1.bias f4 [128]
0.07497881 0.046171002 -0.094155274 -0.020841835 0.09260483 0.10008331 0.101395026 -0.008670748
0.04841174 0.042228717 0.0567046 -0.011029747 -0.0104577495 -0.12488557 -0.014865536 -0.086242154
-0.07674083 -0.111753665 0.09465385 0.09835994 -0.071906336 0.008666398 -0.11368817 -0.09093308
0.034685224 0.043802463 0.03213727 0.029390559 -0.09911557 -0.047703903 -0.03728951 -0.028564211
-0.10400719 0.08508757 0.05670613 -0.117414445 0.098164335 -0.02799376 -0.066366896 -0.02931526
-0.023394523 -0.017358268 0.12629135 -0.027709426 0.113183506 -0.09109627 0.060476348 -0.023170931
0.010158802 0.000590979 0.10857169 -0.077398956 0.10307295 0.053538423 0.006511359 0.09539335
0.11023276 0.07255774 -0.00044215482 -0.060804345 0.10425941 -0.10942123 -0.08048084 0.06293877
0.11059113 -0.072194204 0.030699652 -0.12137244 0.03057516 0.07030885 -0.030832037 -0.030019097
0.03697634 0.088595375 -0.09053551 0.077754885 -0.089398734 -0.024695342 -0.0738423 0.054688573
0.12037505 0.086297184 0.09100835 0.10256175 -0.0054086596 0.11493626 -0.05926836 0.042811878
-0.09225631 -0.046618078 0.036007907 -0.07589399 -0.011257101 0.04714134 0.11276442 -0.028707987
0.052278966 0.04229076 0.07114619 -0.031200148 -0.11015996 -0.02762916 -0.045394674 -0.089782
0.013215664 0.11869894 0.07761703 0.116353735 -0.07650255 -0.064906105 0.113543324 -0.023252249
-0.024057765 -0.018262431 0.026142709 -0.028693806 -0.058616832 -0.055791516 0.04133012 -0.068862125
-0.06860255 0.10871785 -0.10133724 0.01573468 -0.067118436 0.045898218 0.122455545 -0.10325919
00000000: 7e8e 993d ce1d 3d3d 7bd4 c0bd 7fbc aabc
00000010: 9aa7 bd3d 7af8 cc3d 32a8 cf3d c10f 0ebc
00000020: 644b 463d 05f8 2c3d 1543 683d 1db6 34bc
00000030: fb56 2bbc 01c4 ffbd 948e 73bc ba9f b0bd
00000040: 4c2a 9dbd 1bdf e4bd e1d9 c13d f070 c93d
00000050: a143 93bd 82fd 0d3c 58d5 e8bd 1f3b babd
00000060: 1812 0e3d 366a 333d 5fa2 033d 78c4 f03c
00000070: 1bfd cabd 2b65 43bd e3bc 18bd 7eff e9bc
00000080: b901 d5bd 6442 ae3d b044 683d fc76 f0bd
00000090: 620a c93d 2b53 e5bc 5eeb 87bd 8e26 f0bc
000000a0: dfa5 bfbc ed32 8ebc 8552 013e e1fe e2bc
000000b0: c1cc e73d ae90 babd 0cb6 773d f7d0 bdbc
000000c0: 1b71 263c eeeb 1a3a d65a de3d 5883 9ebd
000000d0: e917 d33d 1b4b 5b3d 3d5d d53b 975d c33d
000000e0: b7c1 e13d 2799 943d 04d1 e7b9 fa0d 79bd
000000f0: f585 d53d 3d18 e0bd 23d3 a4bd 0be6 803d
00000100: 9a7d e23d 8eda 93bd d67d fb3c 1d92 f8bd
00000110: c278 fa3c 16fe 8f3d 7893 fcbc 9cea f5bc
00000120: 8174 173d 7e71 b53d ae6a b9bd f43d 9f3d
00000130: af16 b7bd e34d cabc a23a 97bd 2001 603d
00000140: 3287 f63d 94bc b03d 9662 ba3d e50b d23d
00000150: 203b b1bb b463 eb3d 61c3 72bd 825b 2f3d
00000160: e0f0 bcbd 99f2 3ebd 077d 133d 4f6e 9bbd
00000170: b46f 38bc 4717 413d 08f1 e63d 032d ebbc
00000180: 7822 563d 1339 2d3d 18b5 913d 7497 ffbc
00000190: 8c9b e1bd 8c56 e2bc c4ef 39bd a0df b7bd
000001a0: 8386 583c 6e18 f33d adf5 9e3d de4a ee3d
000001b0: 5ead 9cbd 7eed 84bd 6789 e83d 807b bebc
000001c0: ca14 c5bc 189b 95bc 3c29 d63c 460f ebbc
000001d0: 3418 70bd a585 64bd c649 293d 9607 8dbd
000001e0: 7e7f 8cbd 77a7 de3d e689 cfbd 04e6 803c
000001f0: 6475 89bd c5ff 3b3d f9c9 fa3d 8e79 d3bd

fp_projection.fc2.weight f4 [16, 128]
0.04033496 -0.07236777 0.072458394 0.06377159 -0.011576227 -0.048644293 0.054936334 -0.04267173
0.06338649 -0.09139062 0.0075341086 -0.07434354 0.06602472 0.05451106 0.016818874 -0.045443654
-0.01621065 0.0667704 -0.06766838 0.07861873 -0.040649977 -0.08986067 0.0016016103 -0.07481552
-0.080292724 -0.101090334 -0.0885587 -0.019732468 -0.022557348 0.074095674 -0.0072032465 0.08158386
0.042704415 0.06609804 -0.034027893 -0.009380571 0.0535184 -0.03042581 0.03989412 -0.07233033
0.078101315 -0.018942503 -0.002214507 0.039269917 0.03222033 0.0076702605 -0.0805995 -0.021205701
-0.08713092 -0.04388164 -0.036968708 -0.049366582 0.041200813 -0.06981596 0.07262612 -0.079679035
0.04317507 0.07626829 0.035452478 -0.0040189275 0.052977927 -0.07713689 0.031411 -0.0031142002
-0.09446305 -0.05743352 -0.0055829054 -0.003052288 0.044010974 -0.0041089454 -0.06303016 0.021737916
-0.009127586 0.02641867 -0.07127134 0.07809902 -0.012037204 0.008724507 -0.05316705 -0.07548947
0.056895573 -0.0709025 0.07612437 0.023368167 -0.051184807 -0.023216603 0.08136821 -0.032357074
0.016366348 0.05293947 -0.0033439845 -0.033249754 0.057285048 -0.059539456 0.047119275 0.033672336
-0.025873316 -0.044415135 -0.032241184 0.065461956 -0.088414825 0.07220762 -0.08817328 0.009856093
0.025508784 0.02208912 0.0067769443 -0.069141105 0.028623266 -0.033603672 0.06608015 -0.011170899
0.0039580367 -0.040468335 0.058267124 -0.0576535 0.04824791 -0.03495597 0.040153857 -0.08290912
-0.054016296 -0.04548424 0.06575181 0.081614695 0.017662205 -0.05508024 0.060893737 -0.01120028
0.06683469 -0.06973193 0.06422948 -0.07933525 -0.06581141 -0.02089098 -0.0822845 -0.05132
0.02469284 -0.07927649 -0.07967386 0.064976186 -0.05913664 0.05280766 -0.035525296 -0.008813899
0.06590273 -0.08106665 0.002958857 -0.081578575 0.008694039 0.064258896 0.0027792156 -0.07086176
0.03826151 -0.0042187735 -0.06681279 -0.019151703 0.0596425 0.019934526 -0.06567889 0.048989702
0.07176942 0.045620628 -0.057658944 0.06460408 0.0695059 0.08055127 -0.040163036 0.052119054
0.0049571395 -0.01964571 -0.0040792543 -0.0921183 0.057501815 0.05143561 0.024172397 -0.012286833
-0.009700404 0.04172584 0.024515396 0.0076018022 0.06358914 0.025957998 0.056599006 -0.088194884
-0.047993716 -0.077981316 0.015823733 0.027269725 0.022699775 0.062570006 -0.025752021 0.027342195
0.028724317 0.02870612 0.056743912 -0.011075867 0.078894004 0.06913177 -0.09048728 -0.061000336
0.03312305 -0.03987793 -0.04288706 -0.076149285 -0.033813495 0.0056365062 0.011268983 0.06388657
0.03951552 0.02630806 0.080450624 -0.03846605 -0.060295004 0.041625213 0.00640059 0.071444266
0.05326853 -0.047263633 -0.07767927 0.069399804 0.0403226 -0.035276365 0.0039508943 0.017535342
0.022921572 -0.076740906 0.0057496894 0.0011924148 -0.049121846 0.056751385 -0.02074638 0.01653063
0.044116117 0.058887612 -0.091376826 -0.02057946 0.049822923 -0.009581704 -0.07488736 -0.084373035
0.059558447 0.041342456 0.045721866 -0.059433892 0.014574919 0.013663639 -0.081680976 0.04827847
-0.057095714 -0.016864015 0.05614941 -0.066485964 0.03530731 0.022994991 0.00920005 0.029395152
00000000: 4536 253d 8e35 94bd 1165 943d ae9a 823d
00000010: 37aa 3dbc 3d3f 47bd ec04 613d 8dc8 2ebd
00000020: c7d0 813d 012b bbbd afe0 f63b 6d41 98bd
00000030: f837 873d fd46 5f3d bcc7 893c 2023 3abd
00000040: 32cc 84bc ebbe 883d b895 8abd db02 a13d
00000050: 9780 26bd df08 b8bd 20ed d13a e138 99bd
00000060: 8370 a4bd 7308 cfbd 445e b5bd fca5 a1bc
00000070: 30ca b8bc 79bf 973d 3609 ecbb 7015 a73d
00000080: d3ea 2e3d 695e 873d d560 0bbd f7b0 19bc
00000090: 1c36 5b3d 8c3f f9bc 0468 233d ed21 94bd
000000a0: 95f3 9f3d 4f2d 9bbc 4321 11bb 7ed9 203d
000000b0: 77f9 033d cf56 fb3b 5a11 a5bd 94b7 adbc
000000c0: b271 b2bd 3cbd 33bd 806c 17bd 9d34 4abd
000000d0: 2fc2 283d acfb 8ebd 01bd 943d c32e a3bd
000000e0: 58d8 303d 8d32 9c3d 9e36 113d 35b1 83bb
000000f0: 62ff 583d f2f9 9dbd d2a8 003d 9c17 4cbb
00000100: d875 c1bd 693f 6bbd cef0 b6bb e508 48bb
00000110: da44 343d 55a4 86bb f515 81bd b713 b23c
00000120: df8b 15bc f76b d83c b5f6 91bd 61f2 9f3d
00000130: b137 45bc 3cf1 0e3c b1c5 59bd 399a 9abd
00000140: 550b 693d 5435 91bd 18e7 9b3d 996e bf3c
00000150: 29a7 51bd bf30 bebc 60a4 a63d da88 04bd
00000160: b812 863c 0fd7 583d c026 5bbb e530 08bd
00000170: baa3 6a3d a5df 73bd 2400 413d 01ec 093d
00000180: 47f4 d3bc a5ec 35bd 550f 04bd eb10 863d
00000190: d512 b5bd 97e1 933d 3194 b4bd 737b 213c
000001a0: ccf7 d03c 3ef4 b43c 2111 de3b da99 8dbd
000001b0: 577b ea3c 01a4 09bd 0855 873d 2506 37bc
000001c0: 6bb2 813b 20c2 25bd 82a9 6e3d 1426 6cbd
000001d0: 9a9f 453d fe2d 0fbd 5f78 243d 42cc a9bd
000001e0: 3140 5dbd af4d 3abd e3a8 863d 9b25 a73d
000001f0: 54b0 903c d19b 61bd b66b 793d 6181 37bc
00000200: a0e0 883d 9dcf 8ebd bf8a 833d 857a a2bd
00000210: 22c8 86bd 8f23 abbc c784 a8bd ec34 52bd
00000220: a448 ca3c b65b a2bd 0c2c a3bd 3c12 853d
00000230: 4339 72bd d84c 583d f982 11bd 2c68 10bc
00000240: 03f8 863d 4606 a6bd 62e9 413b ab12 a7bd
00000250: 7171 0e3c 2b9a 833d 8023 363b f81f 91bd
00000260: 1ab8 1c3d a33d 8abb 25d5 88bd 08e4 9cbc
00000270: b24b 743d bb4d a33c a782 86bd 6da9 483d
00000280: d8fb 923d b2dc 3a3d c92b 6cbd 254f 843d
00000290: 1c59 8e3d 10f8 a43d ff81 24bd ca7a 553d
000002a0: 806f a23b 0af0 a0bc 44ab 85bb 85a8 bcbd
000002b0: 0687 6b3d 25ae 523d 3105 c63c b64e 49bc
000002c0: 71ee 1ebc b7e8 2a3d 83d4 c83c 8a18 f93b
000002d0: 063b 823d dea5 d43c 5cd4 673d 859f b4bd
000002e0: 0f95 44bd abb4 9fbd c6a0 813c c264 df3c
000002f0: e1f4 b93c b424 803d e7f5 d2bc bdfc df3c
00000300: 424f eb3c 1929 eb3c 4e6c 683d 8e77 35bc
00000310: 2e93 a13d f594 8d3d 6551 b9bd 7ddb 79bd
00000320: 09ac 073d 0a57 23bd 58aa 2fbd 28f4 9bbd
00000330: 0580 0abd 71b2 b83b 8aa1 383c f6d6 823d
00000340: 07db 213d 0084 d73c 4cc3 a43d 948e 1dbd
00000350: e5f7 76bd 337f 2a3d 0abc d13b 5f51 923d
00000360: 1a30 5a3d 8397 41bd 4f16 9fbd 7c21 8e3d
00000370: 5029 253d f37d 10bd 8176 813b 47a6 8f3c
00000380: 05c6 bb3c 562a 9dbd e467 bc3b cd4a 9c3a
00000390: fd33 49bd 2474 683d 50f4 a9bc 3e6b 873c
000003a0: 1ab3 343d 2334 713d c623 bbbd 4196 a8bc
000003b0: 1f13 4c3d 94fc 1cbc 8b5e 99bd c5cb acbd
000003c0: 8ff3 733d b556 293d da46 3b3d f470 73bd
000003d0: a4cb 6e3c 75dd 5f3c 5b48 a7bd a5bf 453d
000003e0: 32dd 69bd 6726 8abc ecfc 653d cb29 88bd
000003f0: 669e 103d fe5f bc3c cebb 163c 1ace f03c

fp_projection.fc2.bias f4 [16]
0.05921977 0.020724427 0.08995515 0.06895339 0.03230648 -0.06804991 0.060867336 0.060975093
-0.015207514 -0.07675969 -0.03550672 0.020783825 0.03985374 -0.085740976 -0.07015964 0.03329927
00000000: 6e90 723d 46c6 a93c 683a b83d 6f37 8d3d
00000010: cd53 043d c05d 8bbd 0750 793d 05c1 793d
00000020: f028 79bc 2f34 9dbd 7f6f 11bd d742 aa3c
00000030: ad3d 233d f798 afbd dbaf 8fbd d164 083d

res_time_projection.weight f4 [16, 1]
0.34157434 -0.7925679 0.53212535 0.78462774 -0.29753268 -0.680372 0.32838196 -0.694376
-0.9613834 -0.26615953 0.92107713 0.41552135 0.77903044 0.19759415 -0.6122211 0.20288885
00000000: d5e2 ae3e bbe5 4abf 5e39 083f 5ddd 483f
00000010: 3456 98be dc2c 2ebf ae21 a83e a0c2 31bf
00000020: 391d 76bf 1046 88be b6cb 6b3f 37bf d43e
00000030: 8a6e 473f 1f56 4a3e 86ba 1cbf 18c2 4f3e

res_time_projection.bias f4 [16]
0.6469262 0.3344769 -0.19091152 -0.8316186 -0.14991556 -0.18101937 0.16154441 0.07136748
0.36841094 0.84755546 -0.4776696 0.57622343 -0.7830472 0.26756576 -0.38201773 -0.010616764
00000000: f59c 253f 8e40 ab3e 4f7e 43be f5e4 54bf
00000010: 7783 19be 245d 39be e66b 253e 1d29 923d
00000020: 5ca0 bc3e 65f9 583f 1c91 f4be 6183 133f
00000030: c875 48bf 61fe 883e d497 c3be f0f1 2dbc

temp_projection.weight f4 [16, 1]
-0.8544473 -0.63528 -0.8118647 0.7963602 0.24189255 0.20724297 -0.40560758 0.6753467
-0.74761444 0.8249551 -0.041316617 -0.3684347 0.05081138 0.4174117 -0.7501537 0.8818904
00000000: 0fbd 5abf b6a1 22bf 5dd6 4fbf 43de 4b3f
00000010: aeb2 773e 8037 543e ccab cfbe 85e3 2c3f
00000020: a963 3fbf 4230 533f 9d3b 29bd 79a3 bcbe
00000030: 981f 503d fdb6 d53e 130a 40bf 92c3 613f

temp_projection.bias f4 [16]
0.97824216 0.20833503 0.3792659 -0.35800755 0.53434545 -0.34352094 -0.79024863 -0.50835884
-0.11133149 0.14577417 -0.91740245 -1.0002823 0.8798483 0.12498256 0.40416476 0.22803737
00000000: 146e 7a3f c755 553e 242f c23e c44c b7be
00000010: ddca 083f fae1 afbe bc4d 4abf ce23 02bf
00000020: c401 e4bd d345 153e e3da 6abf 4009 80bf
00000030: bd3d 613f dbf6 ff3d afee ce3e a182 693e

LayerNorm.weight f4 [16]
0.99091905 0.98706293 1.0167935 1.0292441 0.99193853 0.9965438 0.9816743 1.0246223
1.0214094 1.0001118 1.0162461 1.0021418 0.98703974 0.99647534 0.97126704 1.0018119
00000000: dfac 7d3f 28b0 7c3f 4a26 823f 45be 833f
00000010: afef 7d3f 7f1d 7f3f 024f 7b3f d326 833f
00000020: 8bbd 823f aa03 803f 5a14 823f 2f46 803f
00000030: a3ae 7c3f 0219 7f3f f5a4 783f 5f3b 803f

LayerNorm.bias f4 [16]
-0.008730608 -0.009591634 0.009537629 -0.00998164 0.010936245 0.002546606 0.008223707 -0.0048638466
0.005119888 -0.0021855005 -0.011248702 -0.0075811446 -0.008480268 -0.009581746 0.0052513746 -0.0048739305
00000000: d30a 0fbc 3b26 1dbc b743 1c3c 088a 23bc
00000010: f02d 333c f5e4 263b babc 063c e760 9fbb
00000020: bcc4 a73b 9d3a 0fbb 7a4c 38bc 406b f8bb
00000030: d2f0 0abc c1fc 1cbc b913 ac3b 7eb5 9fbb

yield_pred_head.fc1.weight f4 [32, 16]
0.062647745 0.061842285 -0.08176436 0.0043431874 -0.13545534 -0.031789277 -0.033443745 -0.056682926
-0.20995449 0.23101544 -0.11418885 0.17347094 -0.0082656015 -0.1503314 0.075744726 0.09309311
0.056134477 0.14249659 0.040129602 -0.18631867 -0.20369534 -0.09626935 -0.1662457 -0.18800491
-0.13820061 0.22884901 0.14275058 -0.22820003 0.104906954 -0.11985838 -0.010884939 0.044384044
-0.023418937 0.13250205 -0.11537982 -0.18989922 -0.19062123 0.09305157 0.019269504 0.13091974
-0.14092068 0.20656288 0.17531861 0.12117082 0.0382254 0.13499944 0.071360596 -0.15877232
0.2182811 0.18481869 -0.18056 -0.021699043 -0.21803322 -0.07239314 0.1206938 -0.015633255
0.15991656 -0.011574438 0.16826434 0.22528991 -0.11968309 0.092138335 -0.15863737 0.20438485
0.0020778265 0.2431114 0.17466606 -0.17039394 -0.045752876 0.065764256 0.21404117 -0.0606755
-0.20758496 -0.007067936 -0.09934571 -0.024027288 -0.16091189 -0.11478532 0.050426796 0.15740734
-0.033573855 0.15651757 -0.08360122 -0.16849685 -0.23937935 -0.11781793 -0.120573305 0.09207067
0.10086838 0.23093891 0.21938609 -0.12458839 -0.004598438 -0.14675957 -0.096128255 -0.23654144
0.045284037 -0.064904384 -0.015375827 -0.18647684 -0.08402312 0.16028877 0.04069591 -0.26683092
0.25939792 0.0281978 -0.17984363 0.12663443 -0.036680818 -0.16610315 -0.20943171 0.21869493
0.1964581 0.12850587 0.03577732 0.13125604 -0.23753752 0.053972512 -0.17133875 0.10809161
0.14768781 -0.24836208 0.0029250388 0.20902242 -0.0931068 0.087909795 0.058567084 -0.09873151
0.14007632 -0.07777945 0.07673658 0.16862197 0.020309512 -0.14550972 -0.047730565 -0.19264479
0.2541054 -0.18216679 0.25627398 -0.10684641 0.23913957 -0.008146621 -0.20237319 0.10739856
-0.032823756 0.0152063435 0.08052387 -0.23301236 -0.19431023 -0.092081256 -0.22289492 0.20116098
0.04251336 -0.08116983 0.16240081 0.050321423 0.05591166 0.17134966 -0.15440243 0.069436565
-0.03446552 0.0015169297 0.18978958 0.05893757 0.010620626 0.12532724 -0.03669042 -0.123206645
-0.07657486 -0.20948382 -0.24173231 0.07882078 0.0012330917 -0.096042044 -0.16407739 0.13790287
-0.17187126 0.22270025 0.22193538 0.08538377 0.15765557 0.14266773 0.11681478 0.098301
0.128312 -0.11630921 0.11355211 -0.08025296 -0.07386207 -0.12179169 0.1644917 0.093673475
-0.22988878 -0.063641354 -0.21259023 0.12828268 0.17640093 0.024869155 0.23981258 -0.19192621
-0.17425483 -0.14894857 0.18453716 -0.13138756 -0.14994249 0.012105749 0.10792594 -0.22494896
0.15796699 0.04099273 -0.09781913 -0.102227725 0.14562231 -0.1217559 -0.23378956 0.23570952
0.061665192 0.061772425 0.20886594 0.07597456 -0.088133894 -0.034281187 -0.100024186 -0.15092622
0.1975701 -0.019896248 -0.13554001 -0.17107575 -0.17118165 0.07930233 0.20496339 0.019878663
-0.17188224 0.07740355 -0.122726485 -0.20629154 0.0835116 -0.06368249 -0.103847906 0.14786135
0.038926933 -0.025137966 0.11152145 -0.07985255 0.1775719 -0.061649807 -0.049231328 -0.060012653
0.15189439 -0.114163615 0.19784325 -0.20512117 -0.08792999 0.065730736 0.124989696 -0.12596871
00000000: 764d 803d 564e 7d3d 1374 a7bd 4c51 8e3b
00000010: ceb4 0abe 7935 02bd 4ffc 08bd 5b2c 68bd
00000020: 4ffe 56be 508f 6c3e d8db e9bd 5ea2 313e
00000030: 726c 07bc 79f0 19be 0d20 9b3d 9aa7 be3d
00000040: 44ed 653d a0ea 113e f05e 243d 52ca 3ebe
00000050: 8395 50be dd28 c5bd 503c 2abe 5c84 40be
00000060: 7684 0dbe 6557 6a3e 352d 123e 45ad 69be
00000070: 75d9 d63d 4f78 f5bd be56 32bc 0bcc 353d
00000080: 12d9 bfbc 9eae 073e 414c ecbd f174 42be
00000090: 3632 43be d291 be3d 14db 9d3c d30f 063e
000000a0: 834d 10be 3885 533e b986 333e 6828 f83d
000000b0: 3d92 1c3d 4b3d 0a3e 8125 923d 3695 22be
000000c0: 1585 5f3e 1c41 3d3e b8e4 38be 31c2 b1bc
000000d0: 1a44 5fbe db42 94bd 502e f73d 5011 80bc
000000e0: 2bc1 233e b6a2 3dbc 7d4d 2c3e 66b2 663e
000000f0: 681c f5bd 06b3 bc3d d671 22be 434a 513e
00000100: 252c 083b 32f2 783e a9db 323e c07b 2ebe
00000110: 5e67 3bbd 69af 863d 9c2d 5b3e e086 78bd
00000120: 2791 54be 259a e7bb c375 cbbd e0d4 c4bc
00000130: 16c6 24be 9114 ebbd 548c 4e3d 642f 213e
00000140: bd84 09bd 2446 203e 1e37 abbd 708a 2cbe
00000150: dc1f 75be 874a f1bd 23ef f6bd 8c8f bc3d
00000160: 1594 ce3d 407b 6c3e bfa6 603e 3328 ffbd
00000170: 7eae 96bb 2448 16be e4de c4bd eb37 72be
00000180: c17b 393d 97ec 84bd e5ea 7bbc c9f3 3ebe
00000190: 5014 acbd bd22 243e c1b0 263d 109e 88be
000001a0: cecf 843e 13ff e63c ee28 38be 75ac 013e
000001b0: a03e 16bd f216 2abe 4475 56be 90f1 5f3e
000001c0: 502c 493e 0b97 033e 3d8b 123d fc67 063e
000001d0: 093d 73be 4812 5d3d 6d73 2fbe 225f dd3d
000001e0: 793b 173e a152 7ebe 02b2 3f3b f909 563e
000001f0: c7ae bebd 0d0a b43d 0ae4 6f3d bf33 cabd
00000200: 2b70 0f3e d54a 9fbd 1128 9d3d 3dab 2c3e
00000210: 2260 a63c 8000 15be 2081 43bd ad44 45be
00000220: 1a1a 823e ee89 3abe 5836 833e 4ad2 dabd
00000230: 01e1 743e 6879 05bc eb3a 4fbe c7f3 db3d
00000240: 3472 06bd 0724 793c b3e9 a43d cb9a 6ebe
00000250: 43f9 46be 1995 bcbd 913e 64be 25fd 4d3e
00000260: 7d22 2e3d 5e3c a6bd 664c 263e d61d 4e3d
00000270: a003 653d 4976 2f3e ac1b 1ebe c234 8e3d
00000280: b82b 0dbd b7d3 c63a 3358 423e 8568 713d
00000290: 2202 2e3c c955 003e b248 16bd c453 fcbd
000002a0: 48d3 9cbd ed82 56be ad88 77be ca6c a13d
000002b0: b19f a13a b1b1 c4bd e703 28be 6936 0d3e
000002c0: 05ff 2fbe 890b 643e 0743 633e b0dd ae3d
000002d0: 7670 213e 7d17 123e 963c ef3d 0952 c93d
000002e0: 3964 033e 8633 eebd 028e e83d aa5b a4bd
000002f0: ff44 97bd ec6d f9bd 8370 283e e1d7 bf3d
00000300: f767 6bbe 6656 82bd 41b1 59be 895c 033e
00000310: 72a2 343e 66ba cb3c 6e91 753e 4e88 44be
00000320: dc6f 32be f985 18be 4ff7 3c3e 768a 06be
00000330: 868a 19be 3157 463c 4608 dd3d 0559 66be
00000340: 19c2 213e fee7 273d 6555 c8bd c55c d1bd
00000350: 041e 153e 285b f9bd 8866 6fbe d65d 713e
00000360: a494 7c3d 1505 7d3d f4e0 553e 8d98 9b3d
00000370: 8b7f b4bd 6e6a 0cbd 7bd9 ccbd 678c 1abe
00000380: d14f 4a3e 75fd a2bc 00cb 0abe 7b2e 2fbe
00000390: 3e4a 2fbe 4369 a23d ece1 513e 94d8 a23c
000003a0: e601 30be c185 9e3d 0658 fbbd 173e 53be
000003b0: 2108 ab3d f76b 82bd 36ae d4bd f768 173e
000003c0: d971 1f3d 23ee cdbc 5c65 e43d bc89 a3bd
000003d0: 68d5 353e 8284 7cbd caa6 49bd d4cf 75bd
000003e0: 348a 1b3e 9dce e9bd 6c97 4a3e 490b 52be
000003f0: a314 b4bd d69d 863d 99fa ff3d f1fd 00be

yield_pred_head.fc1.bias f4 [32]
0.16221571 -0.12466107 0.15737389 0.07896255 -0.12353625 0.1363879 -0.09444093 0.1475259
-0.15182565 0.020523736 0.16688995 0.14495127 0.022059906 0.12629476 -0.086320326 0.052103564
0.0039552683 -0.018785395 -0.010641831 -0.1824349 -0.14711909 0.16886538 0.17529331 -0.19466625
0.16156715 0.070820354 -0.14371486 -0.11251474 -0.10415158 -0.19692092 0.104575805 -0.108975425
00000000: e01b 263e 4e4e ffbd 9f26 213e 1eb7 a13d
00000010: 9300 fdbd 45a9 0b3e 3f6a c1bd 0811 173e
00000020: 2f78 1bbe 6521 a83c 33e5 2a3e 1b6e 143e
00000030: fab6 b43c 6a53 013e b6c8 b0bd 8c6a 553d
00000040: 329b 813b d4e3 99bc 135b 2ebc 37d0 3abe
00000050: 63a6 16be 0ceb 2c3e 1780 333e 9756 47be
00000060: dc71 253e 430a 913d fd29 13be 216e e6bd
00000070: 6c4d d5bd a3a5 49be d72b d63d 822e dfbd

yield_pred_head.fc2.weight f4 [3, 32]
-0.16826905 0.12891756 0.16493636 0.06485393 -0.06597104 -0.01340049 0.071453474 -0.12816823
-0.12651591 -0.03801784 0.09843748 -0.06136615 0.16579251 -0.03819677 -0.049808398 0.14770041
0.096672736 0.18354015 0.14732626 0.12545508 -0.058783725 0.091706656 -0.060054254 -0.06799014
-0.02271693 0.00872384 0.041487325 -0.05047143 -0.096932665 -0.07310169 -0.07913362 0.15088141
0.08080106 -0.06377786 0.073172905 0.06694048 -0.17432427 -0.1583966 -0.13741723 -0.09846381
-0.09393897 -0.08478007 -0.108863436 0.06400048 0.14689879 -0.13028356 0.17502742 0.14773834
0.048929974 -0.1576982 -0.07995629 -0.085169144 0.015227699 -0.03483349 0.1217899 0.041908026
0.0944733 0.11256477 0.10074316 -0.16080654 0.12130398 0.008097501 0.09678186 0.12501019
-0.09404788 0.066971116 0.005823578 -0.07531447 -0.06696785 0.1520663 -0.07872095 -0.049374025
-0.110649556 -0.12389087 -0.09308173 -0.15533735 0.096284635 0.009836079 -0.09613035 -0.114010215
0.048897073 0.020656575 0.09166214 -0.0014622635 -0.0931144 0.009325062 -0.09776066 0.07352899
0.15087217 0.0817206 0.15137863 0.08753421 -0.16401538 -0.15738548 0.020869011 0.0011728599
00000000: b94e 2cbe f702 043e 14e5 283e 23d2 843d
00000010: d31b 87bd bb8d 5bbc 3356 923d 883e 03be
00000020: 638d 01be 98b8 1bbd 9799 c93d 125b 7bbd
00000030: 83c5 293e 3774 1cbd e403 4cbd c73e 173e
00000040: 5bfc c53d f3f1 3b3e b2dc 163e 4c77 003e
00000050: 34c7 70bd b3d0 bb3d 73fb 75bd 6a3e 8bbd
00000060: db18 babc 70ee 0e3c 9dee 293d 21bb 4ebd
00000070: a284 c6bd 57b6 95bd cf10 a2bd a880 1a3e
00000080: 077b a53d f79d 82bd addb 953d 1718 893d
00000090: 1082 32be b832 22be 1ab7 0cbe 65a7 c9bd
000000a0: 1363 c0bd 2ca1 adbd cbf3 debd af12 833d
000000b0: a36c 163e 0e69 05be 633a 333e b848 173e
000000c0: cc6a 483d a37b 21be 20c0 a3bd 296d aebd
000000d0: 997d 793c 90ad 0ebd fc6c f93d c0a7 2b3d
000000e0: 387b c13d 5c88 e63d 6e52 ce3d 78aa 24be
000000f0: 396e f83d 61ab 043c 9135 c63d ac02 003e
00000100: 2d9c c0bd 2728 893d b7d3 be3b 793e 9abd
00000110: 7126 89bd 45b7 1b3e 7338 a1bd 6b3c 4abd
00000120: 3c9c e2bd 7fba fdbd a2a1 bebd c110 1fbe
00000130: e130 c53d 8127 213c fddf c4bd 307e e9bd
00000140: 4c48 483d fa37 a93c 5cb9 bb3d 6ca9 bfba
00000150: c3b2 bebd 25c8 183c be36 c8bd 5e96 963d
00000160: 3c7e 1a3e 215d a73d 0003 1b3e 2345 b33d
00000170: a6f3 27be a929 21be 7df5 aa3c a6ba 993a

yield_pred_head.fc2.bias f4 [3]
0.104021825 0.08091804 0.14463812
00000000: 6509 d53d 5bb8 a53d 041c 143e
